weights/checkpoint_critic.pth (torch_old, 54300 bytes, 9 tensors)

bn0.weight f4 [33]
000000 bf 6f b9 3e 85 4d 73 3e d0 a2 c9 3e e5 f2 21 3e
       0.36218068 0.2376004 0.3938203 0.15815313
000010 e8 df 07 3c db f5 06 3e 13 6f 1b bb 1f 4c 76 3d
       0.0082931295 0.13179724 -0.0023717328 0.06013119
000020 e5 c5 87 3d 5d a1 91 3d ad e5 81 3d ee 8c a4 3d
       0.06629542 0.07110856 0.06342635 0.08034693
000030 bd 04 6a 3d 7b 2d 53 3f 0d e1 a3 3e b1 e4 5e 3f
       0.057133425 0.8249127 0.32007638 0.87067705
000040 ff 65 b8 3d fb 2d fb 3d c4 b8 84 3d 45 87 ae 3e
       0.09003829 0.122646295 0.06480554 0.34087577
000050 16 8e 76 3d 15 bc 2c 3d ab 5e d9 3c d5 a6 70 3e
       0.060194097 0.042171557 0.026534399 0.23501141
000060 42 0e 16 3e 1f fe 7b 3e 54 ea 3c 3f 3e 3c de 3e
       0.14653876 0.24608658 0.73795056 0.43405336
000070 3b 2f 23 3f ce 78 a1 3e 94 18 c1 3e 52 db 1d 3f
       0.6374394 0.3153748 0.37714064 0.6166278
000080 0e cb 13 3f
       0.5773171

bn0.bias f4 [33]
000000 6b 50 04 3c 8b e1 57 be bf 5a b0 3d 06 59 10 3d
       0.008075814 -0.21082132 0.086110584 0.03524115
000010 16 f3 75 3b 03 b4 89 bc 56 54 f0 3a 66 f7 59 3b
       0.0037528924 -0.01680947 0.0018335681 0.0033259033
000020 4a 5b 47 bc 7f 6e b4 38 e9 8d 58 bc 5c 42 a0 bd
       -0.012167761 8.60365e-05 -0.013217428 -0.07825157
000030 7c 62 49 bb 47 e7 8e bd b9 d0 a6 3c 8c 5f e7 3c
       -0.0030728867 -0.069777064 0.020363199 0.028243802
000040 15 e8 4c bc c4 41 48 3c db d9 9f 3b 12 e6 b0 3d
       -0.012506505 0.012222711 0.0048782653 0.086376324
000050 b8 f0 bb bc 98 d6 b0 bb 19 88 2d 3a 58 0c a0 39
       -0.022941932 -0.0053966753 0.00066197064 0.00030526775
000060 48 7e 79 3c 92 71 7e bc 45 66 b5 bd 50 e9 c3 bb
       0.015227862 -0.015530007 -0.08857397 -0.0059787408
000070 cb 85 3b 3d da 10 92 bb 36 1d cb 3b 23 7b 20 3b
       0.04578189 -0.0044575753 0.0061985506 0.0024487458
000080 17 07 82 bd
       -0.063490085

bn0.running_mean f4 [33]
000000 5e 78 60 3e 02 bf 2d c0 a2 34 81 3e 9e 89 53 3f
       0.21920916 -2.7147832 0.25235468 0.8263186
000010 ea 7b ce 3c 54 a0 ed bc a3 9b 05 3d f7 47 fb 3b
       0.025205571 -0.029007114 0.03261913 0.007668491
000020 ab a4 d9 ba 7e 8b 19 bb d6 26 00 bd 71 5c e5 bc
       -0.0016604861 -0.002342909 -0.031287037 -0.027998181
000030 cd 6c bd bb a1 57 28 3e 29 e8 40 c0 28 93 9b 3e
       -0.0057807923 0.16439678 -3.01417 0.3038571
000040 cd 1a 91 bb 22 16 24 ba 8f 16 9c 3c 19 03 d3 3e
       -0.0044282437 -0.00062594016 0.019053726 0.412133
000050 61 76 d7 bd 37 ce 37 bc 7f 20 84 bc 6c ff 3a bd
       -0.10520626 -0.011218599 -0.016128777 -0.045653746
000060 4a 9c 04 3e 7c 3d c1 39 b4 48 00 3d fc ff 7f bf
       0.12950245 0.00036857638 0.031319335 -0.99999976
000070 01 17 9e bd 00 00 00 00 fc ff 7f 3f 00 00 00 00
       -0.077192314 0.0 0.99999976 0.0
000080 2c e2 d1 bc
       -0.025620542

bn0.running_var f4 [33]
000000 7d 9e 75 40 37 a2 0a 3f 94 37 86 40 ca b8 0e 3e
       3.8377984 0.5415377 4.1942844 0.13937679
000010 33 ca 7c 3d 80 bf 8d 3c 9e bf c5 3d a3 58 c2 3e
       0.06171627 0.017303228 0.09655689 0.3795825
000020 29 09 96 3d 0c 22 2b 3e 7b 15 47 40 67 12 cc 3f
       0.07325966 0.16712207 3.110686 1.5943116
000030 48 c6 4c 40 c5 a3 82 41 64 4c e9 3f df aa b7 41
       3.1996021 16.329966 1.8226438 22.958433
000040 34 62 e1 3d f2 af 89 3e 6b 05 cc 3d a2 50 b4 3e
       0.11005059 0.26892048 0.09961971 0.35217768
000050 8d 55 0b 40 12 fc 11 3f e7 00 4b 3f 56 7f e9 40
       2.1770966 0.57025254 0.7929825 7.296794
000060 01 1b c8 40 19 60 28 41 de eb 00 42 04 00 00 00
       6.2532964 10.523461 32.23034 6e-45
000070 94 b9 fd 41 04 00 00 00 04 00 00 00 04 00 00 00
       31.715614 6e-45 6e-45 6e-45
000080 60 20 af 3e
       0.34204388

fcs1.weight f4 [96, 33]
000000 5c 67 e9 be 0d 8d 29 3f 9b 18 8e bd 0b 10 fd bd
       -0.4558667 0.6623085 -0.06938287 -0.123565756
000010 36 70 35 bc 60 27 39 be 6b 8e 11 bd 55 fd c4 bd
       -0.011074116 -0.18081427 -0.03553621 -0.09618632
000020 60 dd 1f be 00 a8 2c bf b7 8e 00 bf ea dc 08 3e
       -0.15611792 -0.6744385 -0.50217766 0.13365522
000030 c8 d4 3a 3f 2a 03 59 be 39 14 06 bf e9 e8 05 be
       0.7298093 -0.21192613 -0.5237461 -0.1307713
000040 55 18 da bd 5f 3f 11 3f 90 40 d1 be 95 82 b0 3c
       -0.10649172 0.5673732 -0.4086957 0.021546641
000050 fe e0 89 be b7 bb 99 bd cc d5 87 3e ca 43 ea 3e
       -0.26929468 -0.07506507 0.26530302 0.45754844
000060 84 ac 62 bf 06 36 48 3f 0d 84 cd bd 7c a6 84 bd
       -0.8854449 0.78207433 -0.10034952 -0.06477067
000070 cb d8 b7 3d f3 6e b7 bd 19 64 27 3c 39 8d a2 bd
       0.08976897 -0.08956709 0.010216736 -0.07937092
000080 0b 9e d3 be c6 4a 91 bf 1c 66 fb bd e7 43 bd bc
       -0.41331515 -1.1350944 -0.12275335 -0.023103667
000090 7e 79 90 3c 9d a0 32 bc cd 05 b0 3d 88 6f 3d 3a
       0.017636057 -0.010902551 0.085948564 0.0007226397
0000a0 6d ca 08 be d9 a8 8e be c3 e5 76 3d 1d 28 2b bc
       -0.1335847 -0.27863196 0.06027771 -0.0104465755
0000b0 5e 32 67 3d e2 8c 82 3e f3 66 b6 3f e3 c9 9f 3e
       0.05644452 0.2549811 1.4250168 0.31208715
0000c0 0c cc 19 bd e0 cf ae be 66 d7 a7 bd 01 68 4a be
       -0.03754811 -0.3414297 -0.08195381 -0.19766237
0000d0 1d 99 fb bc 18 1b 8c 3d 57 eb 3c bd 75 53 98 bc
       -0.030712659 0.06841105 -0.046122875 -0.018594483
0000e0 41 b4 0e 3f 05 4a c4 3d 9a 9d 0d bc 03 d5 a9 bf
       0.55743796 0.095844306 -0.008643532 -1.3268131
0000f0 de c4 28 bd 6d 6b 13 be 99 ec 11 bd 0c 6d 70 3c
       -0.041203372 -0.14396448 -0.035626028 0.014674436
000100 20 3b 38 bd d7 ba ce 3d 65 72 1e bf dd af 8d 3f
       -0.04497826 0.100942306 -0.618933 1.1069294
000110 28 21 52 3f 3a 74 42 be 37 e0 c4 3a d3 e7 c6 3d
       0.8208184 -0.1898965 0.0015020435 0.09712186
000120 6a f0 0b bc 1e bb 30 be 93 f4 07 be 91 cd 21 3e
       -0.008541206 -0.1725888 -0.13276891 0.15801074
000130 0e ab 99 be 5b 8a d2 bd 29 2f 91 3e 3d 76 17 3f
       -0.30013317 -0.102802955 0.28356293 0.5916479
000140 4a fb c7 bf 50 b9 d5 be fc 70 3c bf e3 8b 63 3e
       -1.5623562 -0.41742945 -0.736099 0.22221331
000150 c4 1a 83 be ee f2 34 be c7 2e 8d be df 56 46 3d
       -0.25606358 -0.17670795 -0.2757475 0.04842269
000160 70 5e 3a bd 47 f7 26 3e 95 36 32 bf ae 42 20 3e
       -0.04550022 0.16305266 -0.69614536 0.15650436
000170 73 29 f5 be b8 79 6b 3d 1a 37 0e bc 9e ce 39 3d
       -0.47883186 0.057489127 -0.008680129 0.04536306
000180 c4 0e cf 3c da 4d 95 3d 4e 17 6e 3d 52 94 93 bf
       0.025275595 0.0729024 0.058127694 -1.1529639
000190 5e 62 11 3f d0 ff d0 be f8 d6 34 bf 49 50 99 3d
       0.5679072 -0.4082017 -0.70640516 0.07486016
0001a0 6b ae b8 3e 36 82 30 be 86 09 d4 3e 0c b8 00 be
       0.3607057 -0.17237172 0.41413516 -0.12570208
0001b0 23 8f be be 37 2c 36 bf 1f ed a8 3e 63 fb 08 bc
       -0.3721858 -0.71161216 0.3299341 -0.0083607165
0001c0 20 6b 22 3e b9 3e b1 bd a3 c4 51 3d ca 4b 3e 3e
       0.15861177 -0.086545415 0.051212918 0.18583599
0001d0 b0 a3 84 3d 00 2a 0e bf 9d fe b4 3d de dd c5 3e
       0.064765334 -0.55532837 0.08837626 0.38645834
0001e0 83 75 51 be 4e 18 77 be 1d 9f ef bd 10 40 38 be
       -0.20454983 -0.24130365 -0.1170027 -0.17993188
0001f0 39 0a 9e be 46 76 c0 3e 21 e0 46 3d f4 93 80 be
       -0.30867174 0.37590235 0.04855359 -0.2511288
000200 e7 4e b9 3c 94 c0 d1 bc 0c cd 6f 3d d7 61 3a be
       0.022620631 -0.025604524 0.058545157 -0.18201385
000210 de df 36 bd 2c 4a ac 3e 46 e2 11 bf b2 d2 68 3e
       -0.04464709 0.3365034 -0.5698589 0.22736624
000220 a5 e1 2d 3d de 6f ed be 35 8f 63 3d 0e 7c 3a 3e
       0.04245152 -0.4637441 0.055556495 0.18211386
000230 bf ee db bc cd d7 98 bd e4 83 20 3e df eb f7 3d
       -0.026847241 -0.07463036 0.15675312 0.12105536
000240 5a f8 7c be e9 32 ab 3e ef 5e e8 3c 03 b7 47 3e
       -0.24704114 0.3343728 0.02836558 0.19503407
000250 ec 77 30 be 93 8e 3e be 9f 0e a7 be 75 01 ab be
       -0.17233247 -0.18609075 -0.32628343 -0.3339955
000260 05 b9 b4 3e dc c5 19 3e 00 b4 de bc 4f 1b e7 3e
       0.3529741 0.15016884 -0.02718544 0.45138022
000270 06 eb ac 3c f1 51 f1 be fb 79 0f bf 0a d9 07 bc
       0.021108162 -0.4713283 -0.560455 -0.008291492
000280 eb 46 26 bf b0 9e 23 bd 5d 8c 04 bd aa 6e ec 3c
       -0.6495196 -0.039946258 -0.032360423 0.028861362
000290 63 96 5b 3f 13 cf 2d be 26 19 09 3f 67 55 36 3e
       0.85776347 -0.16973524 0.53554 0.17806016
0002a0 c0 a3 72 be de e6 99 3b bf fa b0 be d1 67 11 3d
       -0.23695278 0.004696711 -0.34566304 0.035499398
0002b0 59 18 11 bf 93 ac 29 be d2 43 08 3e e8 fe 91 bb
       -0.56677777 -0.16569738 0.13307121 -0.004455436
0002c0 c8 4e 12 3f ff 3d ae 3f 58 68 bc bd 6d be 43 be
       0.5715146 1.361267 -0.091995895 -0.1911561
0002d0 9c 6e 04 3f de ee eb bd 42 02 38 be 82 c4 47 3f
       0.51731277 -0.1152017 -0.17969611 0.7803422
0002e0 97 3a a5 be f4 07 39 3d ed 05 cf 3e fa 12 f8 bc
       -0.32271263 0.0451736 0.4043421 -0.030282486
0002f0 14 f8 87 3e fa c7 86 3e 7b dd 91 3e 70 1a 45 3e
       0.26556456 0.26324445 0.2848929 0.19248366
000300 07 88 4d bd 13 34 98 bf c3 31 0d 3b 0c 16 96 3d
       -0.050178554 -1.1890892 0.0021544553 0.07328424
000310 a3 f1 05 bd 7d 5d 54 be e5 71 38 3d c5 a5 12 3f
       -0.032701146 -0.20738788 0.045030493 0.57284194
000320 e0 46 dd be 20 58 0a be 07 68 f3 bc 15 9f ec bd
       -0.43218136 -0.1351018 -0.02971269 -0.1155378
000330 27 3c 21 3d 7f 08 93 be bd 08 f7 bc ab 39 b4 3e
       0.039364006 -0.2871742 -0.030155534 0.35200247
000340 ce e3 1d 3e 92 93 bf bd 60 99 4e be 23 6b 64 3f
       0.15418932 -0.09354319 -0.20175695 0.8922598
000350 d1 c3 d1 be 24 05 84 3e ed 05 8d 3e 85 0b 2c 3f
       -0.4096971 0.25785172 0.27543584 0.6720508
000360 ed 4c 2d 3d 95 ac 0d 3e cc 8a 55 be 74 e0 7c bd
       0.04230969 0.13835366 -0.20853728 -0.061737493
000370 d0 5e b5 3e da d0 be 3e 70 10 a2 bd 01 e6 c4 bd
       0.354239 0.37268716 -0.079132915 -0.09614182
000380 24 26 3e be 82 42 20 3c 4d 45 31 3f 73 7a 39 3d
       -0.18569237 0.009781482 0.6924637 0.045282792
000390 76 ea 20 bd 78 fe 8c 3c 5a 01 9a be 40 57 e3 bd
       -0.0392861 0.017211184 -0.30079156 -0.11100626
0003a0 c5 b9 6c 3f 6a 64 13 be 5d 09 8b be bc 82 be bc
       0.9247096 -0.14393774 -0.2715558 -0.023255698
0003b0 a2 38 9d be 31 21 d2 bc a6 9c 99 3e 2b 92 43 3c
       -0.3070727 -0.025650593 0.30002326 0.011936705
0003c0 c8 be 17 3f a0 72 4d 3f 4d 4f 12 3f 55 45 df 3d
       0.59275484 0.8025303 0.57152253 0.10901896
0003d0 98 45 2f 3f e2 1d a6 be 6f 42 21 3e 69 b9 5f 3e
       0.68465567 -0.32444674 0.15747999 0.21848072
0003e0 5e b7 f9 bd dd 4b 42 3f 21 5b c0 3e a7 4b 50 be
       -0.12193178 0.7589701 0.37569526 -0.20341359
0003f0 aa 16 f1 be a5 73 d9 bd 41 f5 2c 3f 91 73 4f 3f
       -0.47087604 -0.106177606 0.6756173 0.81035715

fcs1.bias f4 [96]
000000 b9 06 8b bf 54 58 d1 be 27 4a 4f 3d bb 4a a1 be
       -1.0861427 -0.40887702 0.050607827 -0.31502327
000010 cf 43 38 bf 21 3b 7a bf 4e 72 92 bf 13 13 9b bf
       -0.7197847 -0.97746474 -1.1441133 -1.2115196
000020 b6 cb 67 bf 21 46 95 3d c5 90 66 3e 14 49 9c bf
       -0.90545213 0.07288767 0.22516163 -1.2209802
000030 e9 00 13 bf a3 a9 bc bf af 50 44 bf 50 a3 24 be
       -0.57423264 -1.4739269 -0.76685613 -0.16077924
000040 af 47 5e bf 87 f1 6c bf 26 d6 8b bf fd f0 b6 be
       -0.8682813 -0.9255604 -1.0924728 -0.35730734
000050 7c 15 24 bd 43 6e 4c bf a7 0e 53 bf 38 9e 84 bf
       -0.04005955 -0.79855746 -0.8244423 -1.0360785
000060 18 8b a5 bf a1 62 1c 3d 2f d4 69 3e bf 63 77 bf
       -1.2933073 0.038179997 0.22834848 -0.96636575
000070 5a 2c b0 bf 5c 21 a3 bf 0c 73 2b bf 1c 93 02 bf
       -1.3763535 -1.2744555 -0.6697242 -0.5100572
000080 75 53 83 bf 53 b4 bd bf 5c 96 9f bf 11 3e 4f bf
       -1.0259844 -1.4820656 -1.2467761 -0.8095408
000090 bd 23 a9 bf 8b b4 8f bf bb d1 af bf 80 2c 9c bf
       -1.3214031 -1.1226972 -1.373588 -1.220108
0000a0 4d 6a fd be ca c0 b8 bf be 3d 10 bf 2e a6 b8 be
       -0.49495164 -1.4433835 -0.5634421 -0.36064285
0000b0 14 0d 36 bf 8b 0a 48 bf 86 19 9d bf 90 67 c6 bf
       -0.71113706 -0.7814109 -1.2273414 -1.5500355
0000c0 3f c9 86 bf b0 d8 0c bf a6 35 84 bf 8e 5c 96 bf
       -1.0530165 -0.5501814 -1.0328872 -1.1746995
0000d0 3e 0b 35 3c 49 a9 6b bf 40 0f 92 bf 91 33 8c bf
       0.011050044 -0.92055184 -1.1410904 -1.0953237
0000e0 2e 8c 4d bf f4 c7 3a bf 0d 7a 53 be 55 4c a3 bf
       -0.8029202 -0.72961354 -0.20652027 -1.275767
0000f0 00 e3 72 bf c0 5f 91 bf 87 a2 80 bf c2 5b b4 bf
       -0.94877625 -1.1357346 -1.00496 -1.4090502
000100 0c bd cb bf b4 5c 83 bf d1 a8 4c bf 48 40 c7 bf
       -1.5917068 -1.0262666 -0.79945093 -1.5566492
000110 c2 6f 20 bf 14 f8 63 bf 52 5b 87 be da 82 61 bf
       -0.6267053 -0.8905041 -0.2643686 -0.8809029
000120 f5 ff 64 bf f0 db 82 bd 31 9a c1 be 86 b2 57 bf
       -0.8945306 -0.06389606 -0.3781295 -0.8425678
000130 fa 10 9a bf c5 b9 9d bf d5 3f bc bf 37 39 9b bf
       -1.2036431 -1.2322317 -1.470698 -1.2126836
000140 46 04 a7 bf 84 c4 48 bf 19 da 63 bf 9c 05 73 bf
       -1.3048179 -0.7842486 -0.89004666 -0.94930434
000150 8d 38 1a bf 2c 12 bf bf e5 a4 46 bf bf cd 89 bf
       -0.6024254 -1.4927421 -0.7759536 -1.0765914
000160 7c eb 09 be 0d d8 a7 bf 0a c2 b0 bf ec 51 a6 bf
       -0.13468736 -1.3112808 -1.3809216 -1.299375
000170 d8 31 05 3e 20 bd 90 bf bc c8 9f bf 2f 68 4a be
       0.13007295 -1.1307716 -1.2483134 -0.19766305

fc2.weight f4 [96, 100]
000000 d1 db 08 3e c9 df bb bd e3 70 cb bf 16 74 17 c0
       0.13365103 -0.09173543 -1.5893825 -2.3664603
000010 b7 eb e7 be 44 6e 8c be 6e 65 06 bf c0 0b 9f bd
       -0.45297024 -0.27427876 -0.5249852 -0.07765913
000020 26 e3 78 bf 77 31 f5 be c5 7f 48 be c6 39 b4 bc
       -0.972216 -0.478893 -0.1957999 -0.022000205
000030 3a 41 0e bd 83 43 1f be 5f 8d c7 be 17 f3 b1 bf
       -0.034730174 -0.15553097 -0.38975045 -1.390231
000040 0d ef 02 c0 a5 18 aa 3f 01 09 b0 bf eb 30 f9 3e
       -2.0458405 1.3288771 -1.3752748 0.48670134
000050 d5 b1 b2 bf d7 23 dd 3e c7 d0 20 bf 1c ad 8d 3e
       -1.396052 0.43191406 -0.6281857 0.27671134
000060 b0 44 ca be 67 45 9c be 05 e1 2f bf be 7f f1 bd
       -0.3950553 -0.305217 -0.6870273 -0.11791943
000070 03 ac 3d bf a8 e6 ce be 80 d6 68 bf a3 c1 1b bf
       -0.74090594 -0.40410352 -0.909523 -0.6084234
000080 85 da 5a bf 40 2b bb bf 02 74 f3 3e d5 56 b4 bf
       -0.85489684 -1.4622574 0.47549444 -1.4088999
000090 d2 20 a0 3d f2 ef 24 be e4 7c d5 bf 73 11 e1 bf
       0.0781876 -0.16107157 -1.6678739 -1.758345
0000a0 6d 16 38 bf f4 30 20 bf 10 6c 95 3f 0a 37 88 bc
       -0.7190922 -0.62574697 1.1673603 -0.016627807
0000b0 86 fc 48 bf e4 0b 5c bf 94 33 94 3d c0 6a 03 bf
       -0.7851032 -0.85955644 0.072364 -0.5133476
0000c0 1b 2b bb be 2a bf 24 bf d5 81 62 bf a5 6f a7 bf
       -0.36556324 -0.64354193 -0.8847936 -1.3080946
0000d0 f7 66 1b be 7a 8a 52 bf 91 d6 e8 bf 7a dd 18 bf
       -0.15175997 -0.8224255 -1.819048 -0.59712946
0000e0 85 e7 88 3f 05 98 a1 3e fb 51 2b bf be e7 dc be
       1.0695654 0.31561294 -0.6692197 -0.43145555
0000f0 c9 df 64 bf eb 8e 22 bf f2 82 c2 bf e7 37 50 bf
       -0.8940397 -0.63499326 -1.5196211 -0.813353
000100 27 78 99 3d a7 e9 12 bf 94 8a d7 be d8 62 81 bf
       0.0749362 -0.57387775 -0.42097914 -1.010829
000110 3c be 3f 3e fc 14 08 3e a5 f8 2b bd 58 0b b9 bf
       0.18724912 0.13289255 -0.041985173 -1.4456587
000120 4c 7e 93 bf b4 6a 72 3e 51 fc 07 c0 df 27 96 be
       -1.1522918 0.23673517 -2.1247752 -0.29327294
000130 1e ca b3 bf af 53 ad bd 6a dc 2f be da f0 72 3e
       -1.4046056 -0.08463227 -0.17173925 0.2372469
000140 ca 89 85 bf e8 94 73 be c1 b6 f7 3e cf 99 28 c0
       -1.0432675 -0.23787272 0.48381618 -2.6343877
000150 3d 68 4e bf eb 50 83 be a1 e6 30 bf 0e c8 37 3f
       -0.80627805 -0.25647673 -0.6910191 0.71789634
000160 ba ff af bf df b1 7a be 38 a1 58 bc 8d c6 4d bd
       -1.3749917 -0.24481915 -0.013222031 -0.05023818
000170 9b 82 e1 bf e1 f3 6e bf f7 61 c0 be 9a a9 2c bf
       -1.7617983 -0.9334088 -0.3757474 -0.6744629
000180 5e 15 0d 3f af e1 9a 3e ab 90 d4 3d 8a 69 7d 3e
       0.5511073 0.30250308 0.10379156 0.24747291
000190 3d 96 3a bf 7d 44 47 bf b0 9e 10 3f 0a 97 d0 bf
       -0.72885495 -0.7783888 0.5649214 -1.6296093
0001a0 93 06 40 3f 71 89 e7 be 5d f1 7b bf c3 c0 b1 bf
       0.7501003 -0.45222047 -0.98415166 -1.3886951
0001b0 54 71 e6 be 46 7f b5 3d 1e cc f1 be 06 de 59 bf
       -0.45008337 0.08862166 -0.47226042 -0.85104406
0001c0 65 fe 32 3f 3c 75 13 3d 20 1d 0b c0 e8 97 d2 bf
       0.69919425 0.036000475 -2.1736526 -1.6452608
0001d0 aa 9b 67 bf 0a f5 58 bf 90 37 89 3e 57 af 82 bf
       -0.904719 -0.847489 0.26800203 -1.020976
0001e0 9d 1e bf bf ad f0 8f 3e eb 14 15 3f 4f 1c dc be
       -1.4931217 0.2811331 0.58235043 -0.42990348
0001f0 2a e0 23 bf 83 14 03 c0 11 6b 66 be a0 4c 08 bf
       -0.6401392 -2.048127 -0.2250178 -0.5324192
000200 65 92 c8 bf ba 23 3f bf cc e1 8d bf 26 c9 2d be
       -1.5669676 -0.7466389 -1.1084533 -0.16971263
000210 4a d8 97 bf 02 aa dd bd 3f 34 0f bf 15 82 23 bf
       -1.1862881 -0.10823442 -0.55939096 -0.63870364
000220 e9 49 1f bf 88 07 e7 3d 2a b0 aa bf 72 0d 44 be
       -0.6222215 0.11280733 -1.3335011 -0.19145754
000230 a3 3b a2 bf 7a 07 bf bd 0d d2 c2 bf 9a d9 61 3e
       -1.267445 -0.09327598 -1.5220352 0.22055665
000240 7b 9d e0 be 43 ba d7 bf bc 30 6f bf 21 4a 83 bf
       -0.43870148 -1.6853718 -0.9343374 -1.0256997
000250 7a df 4c 3d 24 e4 93 3f f3 db 51 bf de af 02 be
       0.05001781 1.1553998 -0.8197624 -0.127624
000260 88 94 b6 be ac c4 2d c0 c3 b4 44 bf c5 2c a6 3e
       -0.35660195 -2.715129 -0.7683832 0.3245603
000270 69 52 36 bf 5c 2a 87 3e 0e b4 0e 3f 91 85 01 3f
       -0.712195 0.26399505 0.5574349 0.5059443
000280 3f d1 c7 bf 9c c2 1d bf 88 af 64 bf 7f 20 b3 bd
       -1.5610732 -0.61625075 -0.8933034 -0.087464325
000290 c4 98 14 3e c0 db 0d bf 3f 3a 84 be e4 e7 2c 3f
       0.145114 -0.55413437 -0.25825688 0.67541337
0002a0 3a 23 a5 be 94 76 28 bf 15 f8 a9 bf d6 b1 46 3e
       -0.32253438 -0.65805936 -1.3278834 0.19403777
0002b0 66 02 92 3e b2 a4 83 bd ab 2d 85 bf 18 b8 b1 3e
       0.28517455 -0.064278975 -1.0404562 0.34710765
0002c0 3d 94 57 3e 45 5b 66 be 5f 9a 39 3f 05 48 57 3e
       0.21052642 -0.22495754 0.72501177 0.21023567
0002d0 fb ab 23 bf 06 52 a8 be b7 9c b2 be 01 61 f9 bf
       -0.63934296 -0.3287508 -0.3488519 -1.9482728
0002e0 9f 19 a7 3e c3 78 cc be 44 19 68 3f 05 e5 5a 3e
       0.32636735 -0.39935884 0.9066355 0.21376427
0002f0 2e 1c 1e 3f d6 58 13 bf fa 0b df be e7 c1 0b 3f
       0.6176175 -0.5755743 -0.43563825 0.54592746
000300 19 63 13 3f 70 9b 6f 3e bc d9 a5 3e ac 5a 86 3e
       0.57573086 0.23399138 0.3239268 0.26241052
000310 6d 1a 99 3d 21 36 01 3e 0f ee d4 be 76 a3 c0 3e
       0.074757434 0.12618305 -0.41587874 0.3762471
000320 6f 96 85 3f 40 94 e8 3e de 4a 08 3f bb 7a 9b bf
       1.0436534 0.45425606 0.5323924 -1.2146829
000330 3d 6d 8a bf 17 45 46 bf 88 46 e3 bf c7 29 89 3f
       -1.0814587 -0.7744917 -1.77559 1.0715874
000340 fc 3d 4f bf 40 9b ab bf 2d b1 a8 be c1 86 60 be
       -0.80953956 -1.3406754 -0.32947674 -0.21926405
000350 1e 96 a1 be 34 05 4d 3f 80 9d 88 bf 43 ba 82 bd
       -0.31559843 0.80086064 -1.0673065 -0.06383183
000360 2f 25 a0 bf 21 74 71 3f 62 02 d8 bd e1 78 8e bf
       -1.2511348 0.94317824 -0.105473295 -1.1130639
000370 dc 26 01 bf fa b8 81 bf 16 81 ac bf ca 3d 92 be
       -0.5044992 -1.0134575 -1.3476894 -0.28562766
000380 13 21 7d bf e7 e6 2e 3f 2a c4 9f bf 25 5d 21 bf
       -0.9887859 0.6832108 -1.248174 -0.6303275
000390 a5 9d 4c be d0 0e e2 3e 54 4e 17 3f 3c 77 db bd
       -0.19982012 0.44151926 0.59103894 -0.107161015
0003a0 be 31 b7 be 4e 54 1e 3f 12 77 8c bf 90 e2 2b bf
       -0.35780138 0.6184739 -1.0973837 -0.6714258
0003b0 b7 95 d1 be 90 7b de be 87 f2 44 bf cc 21 c5 bf
       -0.40934536 -0.43453646 -0.7693257 -1.5400939
0003c0 05 b9 4d bf 3d aa 7f bf ae 68 b4 bf 9d e8 15 c0
       -0.8036044 -0.9986914 -1.4094446 -2.3423226
0003d0 80 7f 12 c0 92 03 88 3f eb 4c 3e bf 84 9f a3 3c
       -2.289032 1.062609 -0.7433612 0.019973524
0003e0 3e c5 7d bf b4 de 53 bf 31 26 d0 be 57 41 7f bf
       -0.9912909 -0.82761693 -0.40654138 -0.99709076
0003f0 2c 64 9a bf ab c3 fe bf c8 da 3e 3f f7 1e 82 3d
       -1.206182 -1.9903463 0.74552584 0.06353562

fc2.bias f4 [96]
000000 48 9f 1d bf f1 51 9f be 75 f8 81 bd 34 15 63 be
       -0.6157117 -0.31117204 -0.063462175 -0.22176057
000010 c9 50 6d be 28 9b 37 bf c3 53 1e bf c9 39 12 3f
       -0.23175348 -0.71721125 -0.6184656 0.57119423
000020 79 b6 47 bf a5 49 a5 bf 41 48 44 bf d5 e1 f0 be
       -0.78012806 -1.29131 -0.7667275 -0.47047296
000030 02 67 52 be b3 bf c8 be 15 84 95 3f 95 29 80 bf
       -0.20547107 -0.39208755 1.1680933 -1.001269
000040 cd 48 d2 3f 08 40 49 be 0e fd 1b bf 3b b4 ec be
       1.6428467 -0.19653332 -0.60933006 -0.46231255
000050 c6 72 aa bf e4 ad df bd 79 98 15 be b0 84 15 bf
       -1.3316276 -0.10921839 -0.14608945 -0.5840559
000060 8c 5e 1f bf b6 c0 28 be 90 7d 20 bf 33 c8 95 be
       -0.6225364 -0.16479763 -0.62691593 -0.29254302
000070 04 3f e0 be 2f 1d 22 bf bb 88 f6 be 3e 71 a7 be
       -0.43798077 -0.6332578 -0.48151192 -0.32703584
000080 b3 af 38 be 41 88 2f 3d fb 6a e6 3d 3b 41 44 bf
       -0.18035774 0.04285455 0.11250874 -0.76662034
000090 05 b5 3e 3c d8 4c 45 bf ab e5 86 bf 69 93 f9 3e
       0.011639838 -0.7707038 -1.0538839 0.48745278
0000a0 90 17 41 be 5f 49 99 be 48 74 39 bf f9 1d 58 be
       -0.18856645 -0.2993879 -0.72443056 -0.21105184
0000b0 83 bd fe bd dc 1b 9c bf 5e f4 c6 bd a8 92 a0 bf
       -0.1243849 -1.2196002 -0.09714578 -1.2544756
0000c0 7d 72 75 be b9 08 97 bf ae 19 fb bd 4d 85 a8 3e
       -0.23969455 -1.1799537 -0.122607574 0.329142
0000d0 ee 65 58 bf d1 82 06 bf d6 11 1d bf 86 1a eb be
       -0.8453053 -0.5254336 -0.6135534 -0.45918673
0000e0 30 44 64 bf 48 7d 20 bf 32 14 b4 be 73 d2 fe 3f
       -0.89166546 -0.62691164 -0.35171658 1.9907974
0000f0 db 36 16 bf cc e3 48 bf 4a 1e 80 bd 18 33 cf bd
       -0.5867745 -0.7847259 -0.06255777 -0.10117167
000100 c7 52 e2 be 1b a6 d3 be 45 51 af 3e 2a 36 17 be
       -0.4420378 -0.41337666 0.3424169 -0.14766756
000110 2d 5f be be 21 d1 e2 3f 42 d5 89 bf 3a fc a0 bd
       -0.37181988 1.7720071 -1.0768206 -0.078606084
000120 64 f6 8b be d0 f0 68 3e f6 ea d1 be 5f 80 cb be
       -0.2733642 0.22748113 -0.40999573 -0.39746377
000130 f1 c3 ee be f5 c0 52 bd fd ea 2f be fc a9 8d bf
       -0.46633866 -0.05145355 -0.17179485 -1.10675
000140 43 c7 ba be 2f 18 84 3e 34 60 19 bf fa fa bc 3f
       -0.3648015 0.257997 -0.5991242 1.4764092
000150 11 d3 0c be 2e 80 81 be ec 30 21 be 77 c3 10 bf
       -0.1375239 -0.25293106 -0.15741318 -0.56548256
000160 43 b9 76 be e0 92 ae bf 29 8f 0c be c1 52 09 be
       -0.24094109 -1.3638573 -0.13726486 -0.13410474
000170 11 f8 0f bf db 52 52 be 9d 96 27 be ac 34 56 bd
       -0.56237894 -0.2053942 -0.16366048 -0.052296326

fc3.weight f4 [1, 96]
000000 57 d2 a5 bd 70 9a 2c bd bd 38 88 bd b6 80 09 3d
       -0.0809676 -0.04213947 -0.06651447 0.033570014
000010 05 49 b6 bd 95 9a 81 3d 23 8a 00 3d 49 b7 8c bd
       -0.08900646 0.06328312 0.031381737 -0.06870896
000020 5d 53 42 3d 39 01 58 3d 48 63 bc 3c 80 c0 27 3d
       0.047442783 0.05273554 0.02299656 0.040955067
000030 71 51 92 3a e8 58 a0 bd 42 1d 60 3d a8 3e 4a 3d
       0.0011163187 -0.078294575 0.054715402 0.04937616
000040 07 39 60 3e ce 20 cc 3c 77 0c 40 bd 69 4e 61 bd
       0.21896754 0.024917986 -0.046886887 -0.05500642
000050 d4 4b ee 3d 54 b9 17 3c f3 9c ab 3c 97 ad 0a 3d
       0.11635557 0.009260494 0.020948863 0.033856954
000060 c2 c5 56 bd 3d d5 8e bd 79 8f 9a 3c 4a 07 25 be
       -0.05243469 -0.06974266 0.018867241 -0.16116062
000070 32 25 58 3d 23 e0 12 3d 3b 9a b8 bd ba 5e 2b bb
       0.052769847 0.035858285 -0.09013792 -0.002614899
000080 a0 66 18 be 45 00 d9 3c 88 d9 28 3d c2 67 de 3c
       -0.14882898 0.026489386 0.04122308 0.027149085
000090 33 98 7f bc 70 30 14 bd a9 c6 c3 3c 41 95 84 3d
       -0.015600252 -0.036179006 0.02389844 0.064737804
0000a0 0f 24 5d 39 66 51 35 bd 43 e5 db bc 8a fc 0c 3d
       0.00021089635 -0.04426708 -0.026842719 0.034420528
0000b0 ec 66 4f bb 46 d5 0f 3d 2c 0c 50 3c 74 55 fe 3d
       -0.003164704 0.035115503 0.0126982145 0.12418643
0000c0 75 da dc bc 6f 2a b9 bd d9 c4 4a 3c 73 e3 17 bd
       -0.026959637 -0.09041297 0.012376034 -0.037082147
0000d0 3c 3e 72 bd 9a c5 ad bd 5e 11 10 3d 9d 44 5d bd
       -0.059141383 -0.08484955 0.035172813 -0.054020513
0000e0 ba d7 80 3d 6c f0 14 bd f4 4a f8 3c 45 4e f0 3e
       0.062911466 -0.036362097 0.030309178 0.46934715
0000f0 4c 34 04 be 42 b2 f4 bd e8 25 da 3b 32 a0 4e 3c
       -0.12910575 -0.119480625 0.006657351 0.012611436
000100 f3 db 0d be e5 fb d9 3c 86 b2 79 3d 48 7f a4 ba
       -0.13853435 0.02660937 0.06096127 -0.001255014
000110 28 07 b2 bd 68 e4 b1 3e 4e 16 4c bd 2d 73 ea 3a
       -0.08692771 0.34744573 -0.04982596 0.0017887108
000120 28 f9 43 bd e7 12 2e bd 21 0f 7a bd 32 2f 05 3d
       -0.047845036 -0.042498495 -0.061049584 0.032515712
000130 4d d5 1d be 4e 59 3d 3d f5 5f 13 3d f2 3f 23 3d
       -0.15413399 0.046227746 0.035980184 0.039855905
000140 53 48 c8 bd 84 60 2f 3d 6b 05 c6 bd 67 87 36 3e
       -0.0977942 0.042816654 -0.09669002 0.1782509
000150 47 fb 14 bc 29 62 d1 bc 12 19 e6 bc 43 e1 84 bd
       -0.009093112 -0.025559502 -0.028088126 -0.06488278
000160 35 c8 60 bd f1 c4 0d 3d 32 ce 0b bd e3 6d d8 3b
       -0.054878432 0.034611646 -0.03413219 0.0066048964
000170 2c 45 4a be 5e 54 8e b9 46 70 f5 3b f3 c1 15 3d
       -0.1975295 -0.0002714721 0.0074901907 0.036561918
