weights/checkpoint_actor.pth (torch_old, 57972 bytes, 18 tensors)

bn0.weight f4 [33]
000000 20 08 9c 3f 02 9a 19 3f a6 b8 99 3f 5a e2 c3 3e
       1.218998 0.6000062 1.2009475 0.3825863
000010 47 a9 bd 3d bd 80 db 3d 8a 68 f3 3d 5f 25 78 be
       0.09260803 0.10717914 0.118851736 -0.24233006
000020 d0 66 6c 3d dd 37 4e bd 48 11 53 3e 62 63 e5 3d
       0.057715237 -0.050346244 0.20612061 0.112005964
000030 d5 e7 e8 3d 39 64 f8 3f 99 22 76 3f 07 53 01 40
       0.113723435 1.9405586 0.9614654 2.0206926
000040 cc 0e 7e 3e 76 0f 55 3e 17 c9 fa 3d 87 c0 4f 3f
       0.24810332 0.20806679 0.12245386 0.8115315
000050 ea c7 ae 3d 05 c0 cd 3c 68 32 b8 3d 98 bf d2 3e
       0.08534224 0.025115976 0.08993989 0.411618
000060 6b 5d 92 3e ed d4 00 3f 5a 5e f1 3f 3e 3c de 3e
       0.28586897 0.503249 1.8856919 0.43405336
000070 0b 70 d0 3f ce 78 a1 3e 94 18 c1 3e 52 db 1d 3f
       1.6284193 0.3153748 0.37714064 0.6166278
000080 d8 66 9c 3f
       1.2218885

bn0.bias f4 [33]
000000 e8 1f 91 3d 79 1b 2e 3b a8 ac 9d 3d e3 38 87 3c
       0.07086164 0.0026566668 0.07698947 0.016506618
000010 f5 a1 a0 3c 07 10 3d 3b c9 8c 99 3a 22 72 90 bc
       0.019608477 0.0028848664 0.0011714931 -0.017632548
000020 d6 00 cd bb c8 e8 a8 3c be e4 cd 3c aa a1 13 3c
       -0.006256203 0.020618811 0.025133487 0.009010712
000030 e4 4b 09 3d 2b f2 8d bd dd 38 7c bc 7c 0a 84 bd
       0.03351964 -0.069309555 -0.015394417 -0.06447312
000040 c5 bd 1e 3c b1 a3 bd bc a9 ab c4 3c 9a dd fa 3b
       0.009688799 -0.023149343 0.024007635 0.0076558115
000050 99 0d dc ba a0 ec ed 37 11 ce c5 bb 22 0c 16 3d
       -0.001678872 2.8362789e-05 -0.006036528 0.036632665
000060 e7 ab a0 bc 96 b6 06 3c 5f ce cd 3c fc 49 49 ba
       -0.01961322 0.008222243 0.02512282 -0.0007678566
000070 df 25 d4 ba ed 51 37 38 32 ad 9f ba 54 d1 de ba
       -0.0016185603 4.37069e-05 -0.0012182354 -0.001699964
000080 af 14 53 3b
       0.0032208373

bn0.running_mean f4 [33]
000000 03 ec 5f 3e 49 63 2d c0 e9 b9 82 3e dc 81 53 3f
       0.21867375 -2.709185 0.25532463 0.82620025
000010 f2 92 de 3c 80 b4 ea bc 7b be 07 3d 70 cf 50 3b
       0.027169678 -0.028650522 0.03314064 0.0031861924
000020 8f 69 00 bb 36 2f 12 b9 26 91 ab bc 2c 75 b1 bc
       -0.0019594168 -0.00013941232 -0.020943236 -0.021662317
000030 43 0f b1 3b 01 ae 27 3e be a3 3f c0 19 af 96 3e
       0.0054034307 0.16374971 -2.994369 0.29430464
000040 c9 c3 0f bc fc 28 56 3b 36 25 9b 3c df 05 d2 3e
       -0.008774706 0.0032678237 0.018938642 0.41020104
000050 79 3c bd bd 40 00 a7 bb 9c 65 59 bc 05 b0 12 bd
       -0.0924005 -0.0050964653 -0.0132688545 -0.035812397
000060 1c 20 01 3e 1b 5f 14 bb e8 d2 11 3d fc ff 7f bf
       0.12609905 -0.0022639695 0.035601526 -0.99999976
000070 af 16 e3 bd 00 00 00 00 fc ff 7f 3f 00 00 00 00
       -0.11088311 0.0 0.99999976 0.0
000080 e0 fd ae bc
       -0.021361291

bn0.running_var f4 [33]
000000 c5 01 76 40 1e fb 08 3f 51 19 87 40 39 73 0e 3e
       3.843858 0.53508174 4.2218404 0.13911141
000010 92 94 7c 3d 8b ae 8b 3c 7b ed c6 3d 87 0b bb 3e
       0.061665125 0.017051002 0.097132646 0.36532232
000020 d4 7b 93 3d 14 ca 26 3e 07 4e 42 40 07 0e c5 3f
       0.07201353 0.16288024 3.0360124 1.5394906
000030 3d 18 48 40 3f 34 83 41 14 63 e1 3f 64 00 b8 41
       3.1264794 16.40051 1.7608361 23.00019
000040 26 3e e0 3d 03 40 88 3e c9 7b c9 3d 91 34 b7 3e
       0.10949354 0.26611337 0.09838063 0.35782292
000050 71 2c 0b 40 e4 24 0f 3f ba 3b 4f 3f dc d8 e7 40
       2.1745875 0.55915666 0.8095051 7.245222
000060 ef 35 ba 40 92 bf 29 41 61 09 01 42 04 00 00 00
       5.8190837 10.60927 32.25916 6e-45
000070 74 88 fd 41 04 00 00 00 04 00 00 00 04 00 00 00
       31.691628 6e-45 6e-45 6e-45
000080 58 02 b0 3e
       0.34376788

fc1.weight f4 [96, 33]
000000 ac 34 36 bf a4 fd 46 3e b7 20 7c be f1 12 ba 3c
       -0.7117412 0.19432694 -0.24621855 0.02271411
000010 60 4f 37 3f 80 82 60 bf 7e 68 af 3e b9 35 1a 3e
       0.7160549 -0.8769913 0.3425941 0.15059556
000020 da 80 42 3f 2b 8a ec be da 17 10 bd 7b a5 da bd
       0.7597786 -0.46199164 -0.035178997 -0.10676094
000030 e3 94 2e bf 12 ae d6 3f aa a0 1e bf 06 e0 28 be
       -0.68195933 1.6771872 -0.61963904 -0.16491708
000040 0d d8 14 3d 99 98 8b 3e e8 51 7b 3e a1 49 5a 3e
       0.036338855 0.2726486 0.24542964 0.2131715
000050 ee 80 c5 be 28 51 07 bf a0 95 91 3f e1 c0 41 3f
       -0.38574928 -0.5285821 1.1373787 0.75684935
000060 da f1 b0 be 4d 79 1f bf de 5c 9a bf de 5b 52 3d
       -0.34559518 -0.62294465 -1.2059591 0.051357143
000070 30 31 3b 3f e8 2e c4 bc 9b 88 c7 3c 38 e4 d0 3d
       0.7312193 -0.023948148 0.02435713 0.10199779
000080 b4 5b 36 bf 0e b8 ee 3c f7 fc b5 bf 52 63 91 be
       -0.7123368 0.029140498 -1.4217824 -0.28396088
000090 3e 1e 86 bf 18 f8 50 3e 54 22 8a be 51 16 b5 3d
       -1.0477979 0.2040714 -0.26979315 0.08842147
0000a0 60 87 e9 3e 70 d1 a9 bf 83 a4 96 3e 25 1d e9 be
       0.45611095 -1.326704 0.29422387 -0.45530048
0000b0 89 c3 27 3f 5e 6c a6 bd c5 98 66 bf 62 4f 40 40
       0.6553274 -0.08126138 -0.9007686 3.0048451
0000c0 e3 f3 99 3e 82 71 ed be cd 8d 90 bd 82 1b 5b be
       0.30068883 -0.46375662 -0.07058296 -0.21397212
0000d0 a2 6e 83 be 82 6b d1 3e 28 d2 04 bf 6b 3b 65 3e
       -0.25670344 0.40902334 -0.51883173 0.22385947
0000e0 d4 ec 7f 3e 02 37 1d 40 50 25 8f 3e f1 45 87 3f
       0.24992687 2.4564824 0.27958155 1.056822
0000f0 8a 5c 89 3d 81 0c 3c be 1c 56 b0 bd 1c 8b cf 3d
       0.067071036 -0.18364145 -0.08610174 0.10133955
000100 d9 69 90 3c 61 ea 52 3d 3f a5 a0 bf 21 ac 4a be
       0.017628597 0.051493052 -1.2550429 -0.19792224
000110 ff 31 85 3e ca 13 be 3d 47 a2 11 be a0 56 ac be
       0.26014706 0.09281118 -0.1422206 -0.3365984
000120 0e 2b 5b be 7b e4 36 3f 9a af a8 be 06 a5 e6 bd
       -0.21403143 0.71442384 -0.32946473 -0.112619445
000130 63 61 0d 3e c5 60 b2 bd 41 2a be 3e c1 96 07 40
       0.13806681 -0.087098636 0.37141612 2.1185763
000140 c4 fa 0a 3f 4e e5 c9 be cf b5 a5 be 9c ce e0 3d
       0.5428889 -0.39432758 -0.3236527 0.109769076
000150 c7 ab 12 bf 7a 85 3e 3e 7a c0 15 3e 5b 03 ca 3e
       -0.5729336 0.18605605 0.14624205 0.39455685
000160 fa 27 18 be 88 f7 4b 3f 76 d9 4a 3e 67 81 ab 3e
       -0.14859 0.7967458 0.19809517 0.33497164
000170 41 16 e0 bf d3 cd 5e 3a 6e 2d 0c 3c 13 51 0e 3c
       -1.7506791 0.0008499298 0.008555753 0.008686322
000180 55 86 3e 3d 51 37 e1 bc 61 46 b2 bd b2 e7 84 bb
       0.046514828 -0.027492197 -0.0870483 -0.0040559405
000190 27 cc 2d 3f 3b 03 00 c0 04 17 c3 3f 04 ee bf bf
       0.67889637 -2.0001972 1.5241399 -1.4994512
0001a0 aa 97 82 bf c6 af a5 bf d1 9b 12 3d 6c 0f d6 bd
       -1.0202534 -1.2944267 0.03579313 -0.1045216
0001b0 75 94 a8 3f 9e a1 91 3e a6 e7 8d 3d df 3c 9c bf
       1.3170305 0.28443617 0.06928949 -1.2206076
0001c0 c1 ac 21 3e 30 25 e7 be 19 09 5d bf 3a 57 18 bd
       0.15788557 -0.4514556 -0.86342007 -0.03719256
0001d0 97 74 a9 bf 57 ff b2 be b6 18 18 3f d8 1a 41 bf
       -1.3238705 -0.34960434 0.59412706 -0.75431585
0001e0 01 93 11 3f 91 52 fa be 19 6f 3d 3f b6 09 bb be
       0.56864935 -0.48891118 0.73997647 -0.36530846
0001f0 b5 26 13 bf 04 cb d1 be e4 ce 9a bd d3 05 fa be
       -0.5748094 -0.409752 -0.075589925 -0.4883257
000200 ad a9 a2 3b c2 2f cc 3d d6 ed f7 bc 0a 0f b0 3f
       0.0049640746 0.099700466 -0.030264776 1.375459
000210 86 84 d4 3f 0f f8 a9 3f a5 ed f4 be b6 6c 46 be
       1.6602943 1.3278826 -0.47837558 -0.19377407
000220 48 33 0a 3f 55 d0 b6 3e 07 66 75 3f a7 ad 25 bc
       0.539845 0.3570582 0.95858806 -0.010112203
000230 d7 d2 8c bf 32 54 ab be 42 1d bb 3f 47 0f dc 3d
       -1.1001843 -0.33462673 1.4618304 0.107451014
000240 52 6e 2a 3e 44 b5 19 be 7f d0 41 bf 1a 32 31 3f
       0.16643646 -0.15010554 -0.75708765 0.69217074
000250 2a 00 0b bf b5 36 5c be 52 35 46 3e 5a 35 6d bf
       -0.54297125 -0.21505244 0.19356278 -0.92659533
000260 d1 9c 41 3f 2d 3e 4c 3d fb 4b 16 be d8 a9 87 3f
       0.7562991 0.049863983 -0.14677422 1.0598707
000270 41 b4 38 be 82 f5 34 3f 88 84 54 bf 74 38 10 bc
       -0.18037511 0.70687115 -0.83014727 -0.008802522
000280 2c 50 1a bf d3 74 03 3d e2 b7 cb bc 0e e2 1f 3d
       -0.6027858 0.032093834 -0.024867956 0.039033942
000290 22 d9 55 3f c4 73 5e 3f c6 ad 0b 3d 44 02 2a 3f
       0.83534443 0.86895394 0.03410127 0.6640971
0002a0 6b f0 66 3f 75 7e 57 bf 46 15 52 3f b2 8f 12 3f
       0.902106 -0.84177333 0.8206371 0.5725051
0002b0 3e e2 44 3f c9 d5 18 3f 0a b6 15 3f 8a 34 01 3e
       0.7690772 0.5970121 0.58480895 0.12617698
0002c0 a1 10 bf 3e 25 01 0e 3f ef ad bf bf 13 74 a0 be
       0.37317374 0.55470496 -1.4974955 -0.31338558
0002d0 d9 0b cc be 3b 24 c7 be 9f 85 db bd 2f ab 25 3e
       -0.3985279 -0.3889483 -0.107188456 0.16178583
0002e0 b7 f6 82 3d 3c 92 4c 3f 90 25 6d be 71 dc d7 3e
       0.06394713 0.79910636 -0.2315886 0.4216037
0002f0 05 17 10 c0 9b 59 b6 bd 27 fa 48 bf fe 04 7a 3f
       -2.251405 -0.0890381 -0.785067 0.9766387
000300 68 1b bd bd 88 ab 96 bf c2 7c 36 bd 19 c7 74 bd
       -0.09233743 -1.1771097 -0.044552572 -0.059760187
000310 9c 81 98 bd c3 83 0e be c9 0c ee bd 88 c0 fa 3e
       -0.07446596 -0.1391745 -0.11623532 0.48975015
000320 98 73 02 3f a2 6c ab 3e ef 37 9f bf c2 e4 87 bf
       0.5095763 0.33481318 -1.2438945 -1.0616686
000330 fe 5c e4 3f 45 e8 cd 3f 83 91 b9 bf 26 90 e4 bf
       1.7840879 1.6086508 -1.4497532 -1.7856491
000340 bc 43 d8 be 03 df 23 3e 7f e3 cd be 44 b1 d2 3e
       -0.42239177 0.16003041 -0.40212628 0.41150868
000350 9d 93 6b 3f 35 f9 52 bf f0 dd 9e 3e 04 84 10 bd
       0.92022115 -0.8241151 0.310287 -0.03528215
000360 ed 9f b8 be 08 44 76 bf 14 c6 88 3e c1 15 81 be
       -0.36059514 -0.9619756 0.26713622 -0.2521191
000370 9c fe ea 3e 4c 4b 2c bf 85 24 5e 3f dd 6d cf bf
       0.45897377 -0.67302394 0.86774474 -1.6205403
000380 cc 7f ac be 67 eb 85 3c 2f 27 35 3f 6e ad 8d bd
       -0.3369125 0.0163476 0.70762914 -0.06917845
000390 43 c6 cb 3d dd f9 c6 bd 58 4f 17 40 be d7 34 3f
       0.09949925 -0.097156264 2.3642178 0.70641696
0003a0 bc dc 79 3f 78 82 9e 3e ec 56 eb 3d 9c d2 b5 bf
       0.9760244 0.30958915 0.114911884 -1.4204898
0003b0 f3 44 35 3f a9 65 98 bf 35 87 13 40 b3 7d 04 bf
       0.70808333 -1.1906024 2.3051274 -0.517543
0003c0 0d 56 95 3f 37 39 ec 3e cb 5a 51 bf c6 91 a4 3f
       1.1666886 0.461374 -0.81779164 1.2856987
0003d0 7b d2 76 be a2 b6 50 be 80 f0 89 be 89 f2 14 bf
       -0.2410373 -0.20382169 -0.269413 -0.5818258
0003e0 4d a6 10 3e 15 02 2d bf fa 3f ef bf a7 81 00 bf
       0.14125939 -0.675813 -1.8691399 -0.50197834
0003f0 cd 4b 63 3e 04 98 16 be 63 65 a2 3e 78 64 8a bf
       0.22196884 -0.14706427 0.31717977 -1.0811911

fc1.bias f4 [96]
000000 49 9c 8d bd 7d f8 85 bc b5 d2 11 3d 68 84 c9 3d
       -0.06914575 -0.01635384 0.035601337 0.098397076
000010 9f be 12 be be 61 0a 3d 06 19 24 3e 55 6a 48 3b
       -0.14330529 0.03378462 0.1602517 0.0030580957
000020 57 87 d8 bd 26 de 06 bd a5 9f ce 3d 5d 77 0c 3e
       -0.10572689 -0.0329267 0.100890435 0.13717408
000030 97 ce 41 3d 19 cf 0e 3c e9 da 86 bd 69 79 87 bd
       0.04731616 0.008716368 -0.065847225 -0.06614954
000040 00 95 ab bd 60 a2 31 be 76 25 84 bd 90 23 29 3d
       -0.08378029 -0.17347097 -0.064524576 0.04129368
000050 26 6f c5 3c 29 58 ac 3b 13 80 ee bd 97 31 02 3e
       0.024100851 0.005259533 -0.11645522 0.1271423
000060 ea 7e 00 be bb 50 f2 3d d7 7f 27 3c a1 9c e8 3d
       -0.12548414 0.11831804 0.0102233505 0.113579996
000070 44 2e 00 be 31 ba 2b be 4d b8 ef 3c 72 cb df bc
       -0.12517649 -0.16770245 0.029262686 -0.02731869
000080 42 9c d8 3c 61 7b 17 be 11 b8 ae bc 86 30 17 3e
       0.026441697 -0.14793159 -0.021328004 0.14764604
000090 3f 1a f9 bd 4c 56 18 3d 56 9e 05 3c 7b 04 1a 3d
       -0.12163209 0.037191674 0.008155426 0.03760193
0000a0 8c 0e 8d 3d 53 b3 8a bd 91 6e 16 bd de 71 13 be
       0.0688754 -0.06772485 -0.036726538 -0.14398906
0000b0 d8 0e 2a be ab b4 62 3d 17 ed 03 3e bd 16 2e bd
       -0.16607225 0.05534808 0.12883411 -0.042502154
0000c0 e2 ae 1f be ad 18 21 be ee cf 9c bd c3 90 29 3e
       -0.15594056 -0.1573207 -0.07656847 0.16559128
0000d0 8a 8f 9c 3c 5a 4e 2e bc b7 11 c5 bd 21 24 11 be
       0.019111414 -0.010638798 -0.096225195 -0.14173938
0000e0 2c 88 09 be 86 ba e9 bd ba 04 d9 3b be 54 f2 3c
       -0.13430852 -0.1141253 0.006622878 0.029581424
0000f0 07 26 1d 3e ea 6b 01 be 36 08 ad bd 1b ed e3 bd
       0.15346538 -0.12638822 -0.08448832 -0.11129209
000100 97 cb 75 bd 00 69 e5 bd 5a 3a 92 3d 58 6b fe 3d
       -0.06000861 -0.11201668 0.07140036 0.12422818
000110 6c e9 f1 3d 6d 51 19 3e af d1 e0 bc 74 8e 0f 3d
       0.118121 0.14972468 -0.027443735 0.035047963
000120 46 a1 f7 bd b8 38 2b 3e 48 93 1c 3e be c1 cb bd
       -0.12091307 0.16720855 0.15290558 -0.09949063
000130 63 40 26 3e 4f 57 27 3c f1 bb 04 3e e1 a5 13 3e
       0.16235499 0.010213687 0.12962319 0.14418747
000140 29 ef 16 bd e3 20 91 bd db b2 91 bc b4 e7 de 3d
       -0.036849175 -0.07086351 -0.01778548 0.108840376
000150 f0 1b a2 bd a3 54 8f bc 4a d0 f2 bd d8 88 12 be
       -0.07915485 -0.017496413 -0.11856134 -0.14310014
000160 63 a0 6f 3d 16 1d 29 be e2 83 06 be 30 26 7f bd
       0.058502566 -0.16515002 -0.13136247 -0.062292278
000170 b8 00 f7 bd bb a7 5a bd 26 26 16 be bd 8c 0b 3d
       -0.12060684 -0.053382616 -0.1466299 0.034069765

bn1.weight f4 [96]
000000 a4 98 a1 3f e1 55 fe 3f fb b2 ac 3f 0f 58 85 3f
       1.2624707 1.9869958 1.349212 1.0417498
000010 28 97 99 3f 0e f5 96 3f 54 2a 8f 3f 17 d8 41 3f
       1.1999254 1.1793535 1.1184793 0.7572035
000020 82 39 86 3f a7 91 a9 3f 24 1a 5e 3f c9 5e 52 3f
       1.04863 1.3247575 0.8675864 0.8217588
000030 46 b0 b2 3f 1d be 8a 3f d6 79 5c 3f 21 39 5a 3f
       1.3960044 1.0839268 0.86123407 0.8524342
000040 12 04 f7 3e 54 71 e0 3f a2 f0 55 3f d8 d0 6f 3f
       0.48245293 1.7534585 0.835703 0.93678045
000050 5f 7f ba 3f ef 68 4d 3c 2d ed d5 3f ec 65 13 3e
       1.457012 0.012537225 1.6713005 0.14394349
000060 13 f9 6d 3f 12 18 94 3f 5a fc 19 3f dc 83 5f 3f
       0.9295818 1.1569846 0.6015068 0.87310576
000070 0c 08 b0 3f 51 a2 5d 3f 0c 1d ae 3f b1 62 25 3f
       1.3752456 0.865758 1.3602614 0.64603716
000080 55 de 91 3f 71 9e e1 3f 3d 22 34 3f 54 ea 5b 3f
       1.1395975 1.7626477 0.70364743 0.8590443
000090 e4 a4 97 3f 32 e2 8e 3f 35 60 a6 3f 68 9c 53 3f
       1.1847196 1.1162779 1.299811 0.8266053
0000a0 e1 d2 72 3f 6a 05 a7 3f 8b 3a 35 3f 94 c9 3e 3f
       0.94853026 1.3048527 0.70792454 0.74526334
0000b0 5f 6f 25 3f bc 64 74 3f fc fe b2 3f 42 1f ae 3f
       0.64623064 0.9546621 1.3984065 1.3603289
0000c0 ed 80 90 3f a7 95 91 3f 73 99 5d 3f 3e 38 37 3f
       1.1289345 1.1373795 0.8656227 0.71570194
0000d0 74 4c 82 3f c4 5a 7d 3f 7d 1a 85 3f 2d 89 8b 3f
       1.0179582 0.9896662 1.0398709 1.0901238
0000e0 81 16 94 3f bf 0d 81 3f 22 57 ad 3f 44 f7 d2 3f
       1.1569368 1.008232 1.3542216 1.648171
0000f0 97 30 51 3f 67 58 61 3f 33 2b 6e 3f 04 42 82 3f
       0.8171477 0.88025516 0.93034667 1.0176396
000100 05 aa 64 3f ed ea 33 3f 52 64 a0 3f d1 28 37 3c
       0.8932193 0.70280343 1.2530615 0.011179165
000110 a1 44 a8 3f b1 37 42 3f 66 16 be 3f 51 70 9a 3f
       1.3145944 0.7586623 1.4850585 1.2065526
000120 d6 dc 56 3f 22 9c a2 3f 66 61 f2 3e 0f 73 8a 3f
       0.8393072 1.2703898 0.47339934 1.0816363
000130 af e0 27 3f a0 01 9a 3f 7b a1 46 3f 53 dc 4a 3c
       0.65577215 1.2031746 0.7759015 0.012381631
000140 e0 f5 29 3f d2 a0 34 3f 67 45 0c 3f 13 dd 15 3f
       0.663908 0.7055789 0.547934 0.5854046
000150 fc 5c 08 40 cd 98 16 3f 18 bf 94 3f de 84 83 3f
       2.1306753 0.58826905 1.1620817 1.0274923
000160 34 33 96 3f 7b 5e 88 3e 28 1c 4f 3f 32 69 5d 3f
       1.1734376 0.26634583 0.8090234 0.8648864
000170 d3 e2 da 3e 2f 9f d5 3f 92 22 26 3c f5 ea 28 ba
       0.42751178 1.6689204 0.010140078 -0.0006443703

bn1.bias f4 [96]
000000 0b 05 98 bf d4 61 05 c0 0a d1 8c bf 91 c4 98 bf
       -1.1876539 -2.084096 -1.1001294 -1.1934987
000010 df 37 8a bf 8c 76 c5 be c1 c4 c5 bf ed 58 58 bf
       -1.07983 -0.38567007 -1.545067 -0.8451069
000020 5b 62 93 bf 99 9b 62 bf d0 34 89 bf 4f 29 e1 be
       -1.1514391 -0.88518673 -1.0719242 -0.43976828
000030 e0 b8 0d bf e8 ae d3 3e d5 e2 91 3d 43 d8 ba be
       -0.5536022 0.4134438 0.07123343 -0.3649312
000040 18 cd 1a bf ef 53 2d bf 03 8c d0 3e c6 cf 4c bf
       -0.604692 -0.677062 0.4073182 -0.8000454
000050 a8 a7 cc be c8 d6 8e bd d0 9c f0 bf 62 66 74 3f
       -0.39971662 -0.0697456 -1.8797855 0.95468724
000060 84 d1 51 bf 63 8c be bf 61 88 99 be 6b 50 8e bc
       -0.8196032 -1.4886593 -0.2998686 -0.01737233
000070 31 22 c7 bf 57 83 22 bf ad 71 e9 be f6 01 41 bf
       -1.5557309 -0.6348166 -0.4559454 -0.7539362
000080 c2 af 12 bf 8b e5 2b bf 04 83 b5 be 67 bb d1 be
       -0.57299435 -0.6714713 -0.3545152 -0.4096329
000090 e4 19 0b bf 49 06 3c bf ac 47 bf bf f3 91 17 bf
       -0.5433638 -0.7344709 -1.4943748 -0.59207076
0000a0 16 fc cc be 4a 1a 92 bf 3e 9c 08 bf 11 95 34 bf
       -0.40036076 -1.1414273 -0.53363407 -0.7053996
0000b0 cd dc f8 3d 15 cf d6 3e b0 cf 65 bf f2 76 11 bf
       0.121514894 0.41954866 -0.8977003 -0.5682212
0000c0 40 05 da bf f0 50 94 bf ef 79 3e bf 18 fb 58 bf
       -1.7032852 -1.15872 -0.74404806 -0.8475814
0000d0 ab 6a 64 bf f4 19 04 bf 68 06 11 be ca a6 9a be
       -0.8922526 -0.516021 -0.141626 -0.30205375
0000e0 9d 05 ae bf 9e a8 54 bf 15 7d 3a bf 04 c0 a8 bf
       -1.3595463 -0.8306979 -0.7284711 -1.3183599
0000f0 b6 68 7e bf 22 1f fe be c4 4c c2 be 5f ac fe be
       -0.99378526 -0.49633127 -0.37949193 -0.49740884
000100 27 30 f2 be 82 77 e4 3d 19 a5 4a bf 83 77 25 be
       -0.47302362 0.11155607 -0.7915817 -0.16158871
000110 90 73 0d bf e1 15 8e bf b0 56 95 bf dd e7 c9 bf
       -0.5525446 -1.1100427 -1.166708 -1.5773884
000120 89 f2 42 bf 49 24 e4 3d b8 a7 1d 3f ba ec 4f bf
       -0.7615133 0.11139733 0.61584044 -0.8122059
000130 2b b7 80 3a f3 d2 0b bf 84 b7 32 bf 02 29 35 be
       0.0009820213 -0.5461876 -0.6981127 -0.17691424
000140 b7 6f 04 bf 73 23 a6 bd 52 db 7f be 6d f6 a7 bf
       -0.51732963 -0.0811223 -0.24986008 -1.3122078
000150 da 50 44 bf d7 b3 bf 3c 78 64 98 bf 20 f9 5a bf
       -0.7668587 0.023401184 -1.1905661 -0.85536385
000160 52 55 84 bf 71 eb 18 3f be 5e 9d bf fb 88 43 bf
       -1.0338538 0.59734255 -1.2294538 -0.7638089
000170 ae ca 11 3f 45 a3 3c bf a2 de 13 be 33 55 a1 bc
       0.5694989 -0.7368663 -0.14440396 -0.019693946

bn1.running_mean f4 [96]
000000 c0 c1 8b be 58 af a6 bd e3 9d 4a be a8 59 1b 3d
       -0.27296257 -0.08138913 -0.19786792 0.0379273
000010 13 14 de b9 fd e8 75 3e e5 bd 03 3d 0e 8d e2 3d
       -0.00042358096 0.24014659 0.03216352 0.1106206
000020 4f 94 c7 be 60 ac 3c bd 6a 6a 4d 3d b4 7e 3c 3e
       -0.38980338 -0.046062827 0.050150312 0.18407708
000030 07 ed 1b bd f2 ba 56 3d af 33 94 3e 44 55 b0 3d
       -0.038067844 0.05242438 0.2894568 0.08610013
000040 a1 32 9d 3d b9 21 f6 be d8 2d fc 3d 4e 62 1f 3e
       0.07675672 -0.48072603 0.123134315 0.15564844
000050 e1 b0 85 bd 43 66 ac ba 16 49 be be 0f 26 e5 bd
       -0.065278776 -0.0013153035 -0.37165135 -0.111889
000060 1f 70 82 be 75 c1 2b 3e 4c e6 6b be 33 76 c5 3e
       -0.25476167 0.16773017 -0.2303707 0.3856674
000070 de f8 0c be 1c b3 dd 3c 16 5f 8c 3d f0 e8 1c 3c
       -0.1376681 0.027062945 0.06854074 0.009577021
000080 20 88 5f be 78 bc bc 3b 93 ee ae be 91 23 16 3e
       -0.21829271 0.005759772 -0.34166393 0.14662005
000090 57 f7 ce be 4c be 0a be d9 e9 1a 3e 4f 3d 29 3d
       -0.4042308 -0.13549155 0.15128268 0.041318234
0000a0 4f e5 2a 3e 82 49 03 3d b2 b8 df 3c 91 b9 ad be
       0.16689037 0.032052524 0.02730975 -0.33930638
0000b0 3c e2 10 3e 73 7d 71 be e4 79 94 3e 9d d6 b3 be
       0.14148802 -0.23583011 0.28999245 -0.35124674
0000c0 4b 28 72 be 53 3f 8c be 8e 2f 54 3d 44 fd 3a be
       -0.23648183 -0.27392063 0.051803164 -0.18260676
0000d0 0d f4 4d 3e 55 a8 84 3e a3 1d 0e be aa 76 c9 be
       0.20112629 0.25909677 -0.13878493 -0.39348346
0000e0 7b 30 df bd 37 a8 60 be a8 8f d6 3d 74 69 8e bc
       -0.10897919 -0.21939169 0.10476619 -0.017384268
0000f0 ba 61 a7 3d a7 5c 70 be 28 9b 0c be 59 ce 92 be
       0.08172937 -0.23472844 -0.13731062 -0.28673056
000100 45 8a 3c be 59 fb eb be bd c4 72 3e 60 1f 01 3e
       -0.1841212 -0.460902 0.23707862 0.12609625
000110 f3 2f 8a bd 0a b2 9b 3c 44 f8 8c 3e e1 6b 60 3d
       -0.06747427 0.019005794 0.27533162 0.05479038
000120 85 67 3a 3c 5b a3 92 3b be 4d c5 3e 6c f3 28 be
       0.01137722 0.00447504 0.38535875 -0.16499108
000130 5e d5 1a 3c c3 31 ca 3d 4e 00 48 3e b9 2a 1f 3e
       0.009450285 0.098727725 0.19531366 0.15543641
000140 3f 64 7d 3e c1 74 0e bd bf 1c 4f 3c 98 1c 18 be
       0.24745272 -0.034779314 0.012641131 -0.14854658
000150 31 32 86 bd 5b ba 13 3e f5 28 65 be 23 6f 7e 3e
       -0.06552542 0.14426558 -0.22378905 0.24847083
000160 7e aa 1e be c5 f3 90 bd 00 33 27 bd fd 5a 9b bd
       -0.15494725 -0.07077745 -0.04082012 -0.07585714
000170 cd 1a 87 bd 13 3b 6e 3e 25 10 25 be e2 ac d9 3c
       -0.06596909 0.23264723 -0.1611944 0.026571695

bn1.running_var f4 [96]
000000 63 e2 36 40 b0 c0 cc 40 03 28 af 3f 53 ab e7 41
       2.8575675 6.3985214 1.3684086 28.958654
000010 68 ec 81 40 f2 58 cf 40 65 27 3b 41 ca e3 2c 41
       4.060108 6.4796076 11.697118 10.805613
000020 c1 6a 5d 41 fb a6 3d 41 2e 89 5e 41 06 04 ab 41
       13.838563 11.853267 13.908491 21.376965
000030 17 48 41 40 cb 5a 50 40 e1 5e ae 40 47 6f db 40
       3.020025 3.2555416 5.449082 6.8573337
000040 25 85 a5 40 62 48 79 3f 1f 6e 43 41 6f a4 d7 40
       5.172503 0.9737607 12.214385 6.7388225
000050 61 68 07 41 0f c9 22 3e 2d ba 71 40 a3 59 7a 40
       8.462983 0.1589701 3.7769883 3.911721
000060 cb 06 89 41 f4 68 21 41 bb 20 f8 40 9a cb 43 41
       17.128317 10.088123 7.7539954 12.237207
000070 4f b9 02 41 fb a1 0a 41 64 40 bd 40 10 9d 9d 41
       8.170241 8.664546 5.91411 19.70169
000080 90 d2 0b 41 8f fc 01 40 c7 d4 bc 40 a1 3d b6 40
       8.738907 2.03104 5.900974 5.695023
000090 33 6c 33 40 91 87 ef 40 98 90 00 41 be c3 7a 41
       2.803479 7.4852986 8.035301 15.672789
0000a0 0c 3c 86 41 9e 7a 52 41 87 37 d1 40 88 0c 13 41
       16.77932 13.154936 6.5380282 9.190559
0000b0 d8 d0 b8 40 9a fc 3b 41 ee d1 f2 41 fd cf 0f 41
       5.7754936 11.74917 30.352505 8.988278
0000c0 27 65 ea 40 10 9f 14 40 e3 7d 0a 41 ac 9d d0 3f
       7.3248477 2.3222084 8.655734 1.6298118
0000d0 c9 9a 4e 41 19 0d 95 40 5d 9e b2 41 5d 5c 8d 41
       12.912789 4.657849 22.327326 17.6701
0000e0 1e 55 23 41 db cc cb 41 df b5 bf 40 9d 9a e5 40
       10.208281 25.475027 5.990951 7.1751237
0000f0 13 36 95 40 01 b4 f0 40 f7 d5 62 41 d6 e9 ac 40
       4.662851 7.521973 14.1772375 5.4035444
000100 10 fe ea 40 b4 fa 9a 40 56 89 6c 3f 77 0c df 40
       7.3435135 4.8431034 0.9239706 6.9702716
000110 1f eb b9 40 35 6f d2 40 bd b3 ae 3f a0 24 2c 41
       5.8099513 6.576075 1.3648602 10.758942
000120 c4 3e 4a 41 af 35 a0 40 70 80 d3 40 cc ce a9 41
       12.640324 5.006553 6.6094284 21.225975
000130 7a 2d 7d 40 c0 51 66 41 3d 72 eb 41 5e ce ac 3e
       3.9559007 14.3949585 29.43078 0.33751196
000140 7d fc 7f 41 1c 96 2e 41 19 75 1c 41 27 d4 d9 40
       15.999143 10.911648 9.778588 6.8071475
000150 93 f8 70 3f b0 71 0a 41 ad 5a d7 41 7d 1e 9e 40
       0.94129294 8.652756 26.919275 4.9412217
000160 5a 5f 03 40 d4 98 4e 41 68 2c 53 41 39 1e 5b 41
       2.0526948 12.912312 13.198341 13.694879
000170 de e0 3a 41 5b 99 76 3f 23 ca ff 3d 22 66 b5 3d
       11.679899 0.9632775 0.124897264 0.08857371

fc2.weight f4 [96, 96]
000000 9c 65 c2 3e 5e bc 90 bf 5e 7e 63 3b b3 40 14 c0
       0.37968147 -1.1307485 0.0034712772 -2.316449
000010 71 67 22 bf 98 ca 08 bf 32 f8 b6 3f 4f 6a 15 3f
       -0.6343909 -0.53434134 1.4294493 0.5836534
000020 72 cc cf bf d3 3f 43 bf 77 bf 1d bf 51 9d 2f 40
       -1.6234267 -0.76269263 -0.6162028 2.7439768
000030 e5 a6 58 bf db 3a da bd 26 b3 ac 3f 37 98 73 be
       -0.8462966 -0.10655757 1.3492172 -0.23788534
000040 91 4a 19 bf 36 d3 67 bf ef 52 b4 3e 8a b0 a1 bf
       -0.59879404 -0.9055666 0.35219523 -1.2632
000050 d7 9d 6a 3f 6a 58 db 3d b0 44 4f bd 88 bc 0d be
       0.91647094 0.10710223 -0.050602615 -0.1384145
000060 bb ad a9 3f f3 78 ef bd c6 27 7d be df c0 33 bc
       1.3256143 -0.11692991 -0.24722204 -0.010971277
000070 de b4 42 3f 77 9b 89 3f 8b 6a 83 3e a5 b9 ae be
       0.7605723 1.0750569 0.25667223 -0.3412601
000080 d8 7c e3 be 51 35 92 3f 7f 95 6c 3e 16 d5 8f bf
       -0.44431186 1.1422521 0.23103903 -1.1236904
000090 6a 8f 72 bf 28 8c de 3b c7 05 72 bf 68 3c 0a 3f
       -0.9475008 0.0067916103 -0.94540066 0.5399842
0000a0 5f 74 bd bd c0 2e a3 3f 3c 61 01 3f a4 33 80 3e
       -0.09250712 1.2748642 0.5053899 0.250394
0000b0 cb 3c cf 3f db b9 9f bf e5 e4 e5 be cf e5 50 bf
       1.6190428 -1.2478594 -0.44901195 -0.8160066
0000c0 82 29 99 3f 64 ed af be 51 e5 04 3f 33 c1 82 bf
       1.1965792 -0.34360802 0.5191241 -1.021521
0000d0 d5 be 2f 3f 10 89 69 3d 8a 11 7c 3e 4c 99 66 bf
       0.6865056 0.05701548 0.24616066 -0.9007766
0000e0 10 1b 00 40 bc 21 6c be a2 58 89 be b6 d6 b2 3c
       2.0016518 -0.23059744 -0.26825434 0.021830898
0000f0 05 d0 b2 3f c1 05 ae be 87 5b c7 3e 19 79 09 be
       1.3969733 -0.33988765 0.38937017 -0.13425101
000100 3f ab 40 3c ef 34 ae 3f cd 04 2f bf d8 07 a5 3e
       0.011759578 1.3609904 -0.683667 0.32232547
000110 09 f3 1b bf 3c 5d 39 3f fa e3 a3 bf a8 8a 89 bf
       -0.6091772 0.7240789 -1.2803948 -1.074544
000120 71 e0 02 40 ec f5 c1 bf dc f4 8b 3f f7 64 37 3f
       2.0449488 -1.5153174 1.09341 0.71638435
000130 d2 cf 51 3e c2 34 94 3f 6c de 73 bf 44 11 9f 3c
       0.20489433 1.15786 -0.95261264 0.019417413
000140 b2 b5 bb 3e 0a c6 44 bf 61 e4 05 3f 35 02 4c 3d
       0.3666206 -0.76864684 0.52301604 0.049806792
000150 c8 65 a4 3f 84 94 a4 3c 85 20 c4 be 9f 00 30 40
       1.2843561 0.020090349 -0.3830606 2.750038
000160 98 9c 5d 3f 09 70 c7 bc e1 11 99 3e d9 c5 f5 be
       0.8656707 -0.024345415 0.29896453 -0.48002508
000170 c0 37 43 3d 2a 9b 3f bf dc 17 bd bd aa 4a aa 3c
       0.04766059 -0.74846137 -0.092330664 0.020787556
000180 c1 c0 61 bf d5 63 cd be d6 b9 b3 bf 82 a5 50 bf
       -0.88184744 -0.40115228 -1.4041088 -0.81502545
000190 78 c8 88 bf 40 a3 a6 be 6d 67 54 bf e8 ee 07 3f
       -1.0686178 -0.32546425 -0.82970315 0.53098917
0001a0 b6 29 c8 be a7 cb fc 3e c6 7f b5 bf 27 28 7c 3f
       -0.39094323 0.49374124 -1.4179618 0.9849877
0001b0 59 26 85 bf aa 8e 02 bf ff 5e 53 3f ce ae 2e 3f
       -1.0402328 -0.5099894 0.8256683 0.6823548
0001c0 b9 37 a0 be f3 87 b9 bf 74 91 8d 3e c3 c9 80 bf
       -0.31292513 -1.4494613 0.27650034 -1.0061573
0001d0 5f b1 da 3e 21 5a af bc d0 f8 e7 bf 38 9e 0c bf
       0.42713448 -0.021405281 -1.8122807 -0.5492892
0001e0 b1 73 0e 3f 94 e4 55 c0 e7 92 6f be a0 2c dd 3e
       0.5564528 -3.3420763 -0.23395883 0.4319811
0001f0 64 81 cb 3f 60 3a 03 bd 5d 63 af 3f ef 0b 41 bf
       1.5898862 -0.032038093 1.3702198 -0.75408834
000200 4c 07 8f 3d 57 7a 95 3e f8 11 d4 3e 0b 4b fe be
       0.06983814 0.291949 0.4141996 -0.49666628
000210 a7 ad ec bf b7 7c a8 3f 72 7a 32 c0 64 70 77 3f
       -1.8490494 1.316306 -2.7887235 0.9665587
000220 48 a0 b9 3f ff 9f 3f 3f ea ec 09 3f 64 1f 15 3f
       1.4502039 0.7485351 0.5387713 0.58251023
000230 0f 00 80 3f 92 c8 88 be 25 da 5b 3f 35 24 37 be
       1.0000018 -0.26715523 0.8587974 -0.17884906
000240 79 6c 91 bd 0d b7 bb be 81 71 be 3e 1f 07 89 bf
       -0.07100768 -0.36663094 0.37195972 -1.0705298
000250 96 58 00 3f b0 22 84 3f 20 27 1c bf db 1b 8e be
       0.5013517 1.0323086 -0.609972 -0.27755627
000260 e3 d7 b0 3f d0 78 4e 3d 1e 4c 39 3e ce 4c 9c bf
       1.3815883 0.050408185 0.18095443 -1.2210939
000270 6a ad 4e 3e 27 44 90 3f 17 04 84 3f b2 53 11 bf
       0.2018334 1.1270798 1.0313748 -0.56768334
000280 73 4c a3 be 89 55 a9 3f 28 65 78 be 50 38 19 bf
       -0.31894264 1.3229228 -0.24257338 -0.5985155
000290 71 54 14 bf 70 75 69 bf 83 e1 32 bf ab ba 5b bf
       -0.5794135 -0.9119482 -0.69875354 -0.8583171
0002a0 31 bc e5 3e d2 74 41 bf ba 80 2d bd 01 6e b3 be
       0.4487014 -0.7556888 -0.04235909 -0.35044864
0002b0 77 db b6 39 32 2d e1 3f 8b 80 ae bf 74 86 23 bd
       0.0003487726 1.7591918 -1.3632978 -0.039923146
0002c0 9b cc f4 3e 37 aa 89 be ef 86 62 3f 17 d6 0e be
       0.47812352 -0.26887676 0.8848714 -0.13948856
0002d0 52 5b 2f 3f 21 d4 85 3d 0a ff c8 bf 73 d3 bc 3d
       0.6849872 0.06534601 -1.5702832 0.09220018
0002e0 ab 37 4c 3f a3 5f 6d 3d 60 ae ad be 60 c3 0f bf
       0.7977244 0.057952534 -0.339221 -0.56157494
0002f0 29 1e 7a bf 1b b4 ce be 9a 5f a7 bc 67 97 95 bd
       -0.9770227 -0.40371785 -0.020431329 -0.07304268
000300 7c e0 03 3e b8 22 eb 3f 28 ff f5 bf fd ad 91 bf
       0.12878603 1.836997 -1.9218493 -1.1381222
000310 85 6e 18 bf 4d 81 89 bf e1 be 3d bf cb b3 df be
       -0.5954364 -1.0742584 -0.74119383 -0.4369186
000320 93 9a 21 3f 01 a4 ed 3f 39 0e 9e bf 13 dd 77 be
       0.63126487 1.8565675 -1.234809 -0.24205427
000330 9f f2 3e bd 5f b1 a4 3e a6 05 cf be 11 a1 1f 40
       -0.0466181 0.32166573 -0.40433997 2.4942057
000340 58 76 7d bf da ba 83 3e c2 f5 b2 3e 38 76 61 bf
       -0.99008703 0.25728494 0.34953123 -0.8807101
000350 a1 7d b6 3c 41 c1 ed 3a a6 f0 a2 3e ea 15 22 3e
       0.022276701 0.0018139259 0.31824225 0.15828672
000360 7a a0 70 bf 5c 85 96 bf 32 68 46 3f 25 6b d5 bf
       -0.9399487 -1.1759448 0.7750274 -1.6673323
000370 a1 93 b6 3f 66 24 95 bf 68 3c a4 3f 85 9b 4c be
       1.4263803 -1.1651733 1.2830935 -0.19981201
000380 b3 6f b3 bf 1d 35 6c 3e 26 c4 f9 bf 9f b0 5b be
       -1.4018463 0.23067136 -1.9512985 -0.21454094
000390 5e 38 b5 bf da 5b 11 3d 51 ed 26 bf fb 06 04 3e
       -1.4157827 0.035487987 -0.65205866 0.12893288
0003a0 10 21 f3 3f 8d 8e 2c bf 12 6e de bf d7 0c da be
       1.8994465 -0.67405015 -1.7377341 -0.4258792
0003b0 73 36 12 3f f2 1d 75 be 9b f2 c6 3f 1b f5 d8 bf
       0.5711433 -0.23937204 1.5542787 -1.69498
0003c0 90 43 70 3f 28 bb 66 bf 8a eb 37 3e aa 07 46 3f
       0.9385309 -0.9012933 0.17960945 0.77355444
0003d0 93 3c d0 bf 3b 60 06 3f 5d 37 0f 3f e4 db b4 be
       -1.6268486 0.52490586 0.5594385 -0.35324013
0003e0 ad d1 23 c0 3e de 93 be 4d 2a 59 3e 6f e5 9f 3d
       -2.5596726 -0.28880495 0.21207543 0.07807433
0003f0 cb 0b 0d 40 93 be 7b 3f ae 6d 47 3f dd f3 5d bf
       2.2038448 0.9833767 0.7790173 -0.8670023

fc2.bias f4 [96]
000000 66 1a 9b bc 9f cd 56 3d 83 eb 3e bd c5 90 8f bd
       -0.018933486 0.05244219 -0.04661132 -0.070100345
000010 19 58 f8 3b c0 ac 68 3d 3c af 8d 3d 86 dc 0e 3d
       0.0075788614 0.056805372 0.06918189 0.034878276
000020 15 59 0b bd 20 24 58 3d 2a 1a 9a 3c ea 79 36 3b
       -0.034020502 0.052768826 0.018811304 0.0027843663
000030 b7 96 81 3c 04 03 78 bd 1c aa 98 3d 5a 8f 7f 3c
       0.015818937 -0.06054975 0.07454321 0.0155981425
000040 0e f6 17 bd c7 08 b9 bd 8e e0 81 3d f5 55 3c bd
       -0.03709989 -0.09034877 0.063416585 -0.045980413
000050 a4 7a 79 3d c1 40 a7 3d 53 03 61 bc 1f 35 9c 3d
       0.060907975 0.08166648 -0.013733703 0.076273195
000060 30 a2 9c bd 7d d6 97 bd de 7c 86 3d 2c 2b 58 bb
       -0.07648122 -0.07413957 0.06566785 -0.0032984717
000070 33 8a 05 bb af 05 31 3d ee e7 7d bd f5 56 5b 3c
       -0.0020376563 0.04321831 -0.061988764 0.013387431
000080 5e 25 76 3d bb e7 b1 bd 9e 67 98 bd 26 06 a9 bd
       0.06009423 -0.08686777 -0.074416384 -0.08253126
000090 67 29 d0 bc 5a 15 7e bd 7e 59 4b 3d 87 7d 25 bc
       -0.025410367 -0.06203208 0.049645893 -0.010100729
0000a0 1f 11 a9 bd 54 9f 8d bd 76 22 c5 3d cd be 75 bd
       -0.08255219 -0.06915155 0.096257135 -0.059996415
0000b0 aa 45 c9 3d 41 b0 4e 3b 2a 93 ce 3d 23 2d 49 bc
       0.098277405 0.003153816 0.10086663 -0.012278828
0000c0 35 cf 11 3d bd 7e a1 3d ba a3 b4 3d 36 55 ee bc
       0.035598 0.078855015 0.08820291 -0.029093366
0000d0 e0 79 84 3c d4 3c af 3d ec 03 5a bd 42 3a 95 bb
       0.016171396 0.08556524 -0.053226396 -0.004554064
0000e0 4d 12 9f bd 1d 62 4c 3d 25 2d 1a 3c dd 35 7b 3d
       -0.077671625 0.049898256 0.009410177 0.061330665
0000f0 f2 be 26 bd b4 9e 56 bd a5 5b 58 3d c5 9b 8a 3d
       -0.040709443 -0.052397445 0.052821774 0.06767992
000100 74 bc bb 3b 7a 9b 84 bd 12 0d bc 3d 13 54 51 3b
       0.0057292525 -0.06474967 0.091821805 0.0031940981
000110 ed de a8 3d 3c 89 4a 3d 67 9b a5 bd e9 4e bb bc
       0.08245645 0.049447283 -0.08086281 -0.022864776
000120 2c 6e 67 bc bc 4f 89 3d 11 d7 49 3d 41 d4 52 bd
       -0.014125388 0.06704661 0.04927737 -0.051471952
000130 ef fb e9 3c 80 08 81 bc 9f 3d 35 3d 77 88 20 3d
       0.028562514 -0.015751123 0.04424822 0.039192643
000140 90 65 9f 3d a0 58 a2 bd 96 68 7b bd 65 d6 7d bd
       0.077830434 -0.0792706 -0.061379038 -0.06197204
000150 3f cd 8b bc 72 6d bf ba 1c 2f d7 3d ae 27 d2 bc
       -0.017065642 -0.0014604761 0.10507032 -0.025653686
000160 1c fb 13 3d 0c dc ec bc a1 10 c2 bd df 31 69 3c
       0.03612815 -0.02891352 -0.09475828 0.014233082
000170 03 4c 19 3d 66 90 37 bd 01 5f a4 3d c2 7b c3 bd
       0.037426006 -0.044815443 0.08025933 -0.09545089

bn2.weight f4 [96]
000000 a2 1f c4 3f e0 7f ed 3f 04 52 e1 3f 52 46 be 3f
       1.5322154 1.8554649 1.7603154 1.486521
000010 7d 9a b6 3f 0a 33 a2 3f 48 f8 b1 3f ac 3b c9 3f
       1.4265896 1.2671826 1.3903894 1.5721335
000020 ae aa e9 3f c7 9d 17 40 a4 d1 2c 40 39 dd 09 40
       1.8255212 2.369005 2.7002954 2.1541274
000030 5f fe dc 3f 38 11 11 40 d4 20 8c 3f d5 13 0d 40
       1.7265128 2.266676 1.0947518 2.2043355
000040 e3 62 0a 40 c0 6e 0f 40 58 f4 bb 3f 26 91 d7 3f
       2.1622856 2.2411346 1.4683943 1.6841171
000050 56 e4 91 3f 8d 28 d4 3f b4 3f 13 40 c8 14 0c 40
       1.1397808 1.6574875 2.3007631 2.1887684
000060 27 c6 dd 3f fe 25 a0 3f e6 c5 41 3f ed 2c d0 3f
       1.7326096 1.2511594 0.75692594 1.626371
000070 4a 8e a6 3f e0 2b b5 3f 8a 1e bb 3f fa 6e c9 3f
       1.3012173 1.4154015 1.4618695 1.5736992
000080 72 f3 c8 3f c0 73 ec 3f 66 2a dc 3f 89 b0 93 3f
       1.5699294 1.8472824 1.7200439 1.1538249
000090 62 33 96 3f 97 57 ab 3f 60 23 a4 3f c3 bf dc 3f
       1.1734431 1.3386105 1.2823296 1.7246021
0000a0 d3 93 92 3f f1 71 e2 3f 49 30 c0 3f 1c a3 d0 3f
       1.1451362 1.7691022 1.5014735 1.6299777
0000b0 a1 6e a8 3f 61 ca b1 3f a6 a2 d4 3f fc c0 c6 3f
       1.3158761 1.3889886 1.6612136 1.5527644
0000c0 9c 67 b5 3f 35 98 bd 3f 02 2d 15 40 9a 10 cd 3f
       1.4172244 1.4812075 2.330872 1.6020691
0000d0 83 47 06 40 1c bb 34 3f 2d 25 e1 3f 56 04 dd 3f
       2.0981147 0.70598006 1.758947 1.7266948
0000e0 cd 6a f5 3f 52 09 c9 3f 0a 94 c8 3f 9e a3 91 3f
       1.9173218 1.5705969 1.5670178 1.1378057
0000f0 f8 ed ce 3f cd 73 ec 3f 9b 23 e2 3f 40 c1 08 40
       1.6166372 1.847284 1.7667116 2.136795
000100 e9 b1 e9 3f 69 7f 1a 40 ce f7 02 40 ec 10 08 40
       1.8257419 2.4140265 2.0463748 2.1260328
000110 8f ea ba 3f 5a 41 e0 3f 40 00 d7 3f 05 db 04 40
       1.4602832 1.7519944 1.6796951 2.075868
000120 c7 56 b4 3f 77 2b f5 3f 1a a8 f7 3f 68 38 f1 3f
       1.4088982 1.915389 1.9348176 1.8845339
000130 44 fa df 3f 3f db e2 3f b8 4b e3 3f 87 06 aa 3f
       1.749825 1.7723159 1.7757483 1.3283242
000140 b9 b4 95 3f bd 1e 6e 3f 44 c8 00 40 6a 13 f1 3f
       1.1695777 0.9301565 2.0122232 1.883405
000150 0f 55 f3 3f 9a 92 f7 3f a6 b7 06 40 d2 63 01 40
       1.9010333 1.9341614 2.104959 2.0217175
000160 7b ad b5 3f fb e5 02 40 7b cc f0 3f a9 3b a9 3f
       1.4193567 2.045287 1.8812402 1.3221332
000170 87 b6 d8 3f 50 b0 c4 3f 79 a2 e0 3f 03 d0 a6 3f
       1.6930703 1.5366306 1.7549583 1.303223

bn2.bias f4 [96]
000000 38 f5 c6 bf f1 82 10 c0 60 f5 a9 bf 68 7f d9 bf
       -1.5543585 -2.257992 -1.3278008 -1.6992006
000010 ea bf b4 bf 61 5e 82 be a0 58 99 bf 05 a6 c9 bf
       -1.4121068 -0.2546263 -1.1980171 -1.575379
000020 8b ab 55 c0 9a 57 06 bf e7 a5 b6 bf d0 7f d6 bf
       -3.3385952 -0.5247742 -1.4269379 -1.6757755
000030 de eb 92 bf a3 56 8d bf f9 3f 2e c0 90 23 60 bf
       -1.1478231 -1.1042064 -2.7226546 -0.87554264
000040 cc f4 cd bf 45 eb 79 bf b2 28 7b bf 42 b6 ac bf
       -1.6090331 -0.9762462 -0.9810897 -1.3493121
000050 59 ad f5 bf 3e 73 cc bf 74 ac 0b c0 10 ec fc bf
       -1.9193527 -1.5972669 -2.1824007 -1.975954
000060 ef 00 f5 bf b5 4c dc be de 1f 84 3e de b3 12 c0
       -1.914091 -0.43027273 0.25805563 -2.2922282
000070 1b ed 22 c0 91 f4 6a bf e8 84 38 bf 6d 66 c2 bf
       -2.5457218 -0.9177943 -0.720778 -1.5187508
000080 da ae 48 bf a5 a4 41 bf 41 99 89 bf 27 c0 28 bf
       -0.783918 -0.7564185 -1.0749894 -0.659182
000090 d4 c5 0f c0 1a 8a 40 c0 db 2b 36 c0 53 d6 09 c0
       -2.2464495 -3.008429 -2.8464267 -2.1537063
0000a0 5b d7 0b c0 07 20 79 bf ed ed 05 bf c7 6a 5b bf
       -2.1850193 -0.97314495 -0.5231617 -0.85709804
0000b0 26 0f ff bf 77 db 0a c0 8f 65 26 c0 d9 f0 f6 bf
       -1.9926498 -2.169645 -2.5999486 -1.9292251
0000c0 cd 8b 17 c0 f6 df a8 bf 9a 43 ac bf 2a df 1a c0
       -2.3679078 -1.3193347 -1.345813 -2.4198709
0000d0 f5 7a e4 bf b1 c8 11 c0 9f d2 d7 be 58 35 ba bf
       -1.7850024 -2.2778742 -0.4215288 -1.4547529
0000e0 5d 40 b7 bf 6b 61 61 c0 79 53 a2 bf 2e be c0 be
       -1.4316517 -3.521571 -1.2681724 -0.37645096
0000f0 ee 95 06 c0 30 c4 b6 bf 33 29 c2 bf e9 94 c8 bf
       -2.102901 -1.4278622 -1.5168823 -1.5670444
000100 30 60 4b bf 8d 6c 2d c0 35 87 f2 bf 6c 1c 36 c0
       -0.79443645 -2.7097504 -1.8947512 -2.8454847
000110 80 5d 26 c0 55 ee 03 c0 8b c5 a4 be 1d 7a 69 bf
       -2.5994568 -2.0614216 -0.32181963 -0.91201955
000120 9f 7d 3b c0 fe 02 b2 bf 91 0c 06 c0 8f 86 c3 bf
       -2.9295423 -1.3907163 -2.094517 -1.5275439
000130 ba 49 d9 bf d6 ad 04 c0 2c 09 0a bf 82 73 c0 bf
       -1.6975625 -2.07311 -0.53920245 -1.503525
000140 bd 7e 6c bf 8e 8f 16 bf c8 47 a5 bf 67 44 80 bf
       -0.9238089 -0.588128 -1.2912531 -1.0020875
000150 dd 7d ba bf 59 64 03 bf 36 b4 e6 bf b0 a8 8a bf
       -1.456966 -0.51324993 -1.8023746 -1.0832729
000160 67 56 b5 bf f1 22 f0 bf 22 73 00 c0 e2 c5 fb bf
       -1.4166993 -1.8760663 -2.0070271 -1.9669764
000170 ed df c8 bf da f5 00 c0 7c 25 2e c0 02 8e 28 c0
       -1.5693337 -2.0150056 -2.7210379 -2.6336675

bn2.running_mean f4 [96]
000000 46 ff dc 3e 80 b8 1d bf 15 54 64 3f f2 3b 14 c0
       0.43163508 -0.6160965 0.891908 -2.3161588
000010 41 ae 8d 40 87 85 c2 c0 cf 77 11 3f 8c 26 2d 40
       4.427521 -6.0787997 0.5682344 2.7054777
000020 0e 04 3f 3f 36 00 cc bf f7 1d af bf b0 12 9b c0
       0.7461556 -1.5937564 -1.368102 -4.846031
000030 5d 76 60 40 4f 30 55 bf 3f c3 0f be 37 26 1e 40
       3.5072243 -0.8327684 -0.14039324 2.4710824
000040 e8 c9 73 40 5e 5d 03 3f bf 9b 73 be 25 76 72 c0
       3.8091984 0.5131434 -0.23789881 -3.788461
000050 e8 f8 8e bf 29 e8 3d bf c9 e4 93 40 24 4e de 40
       -1.116971 -0.74182373 4.621678 6.9470387
000060 0d 78 9e 3f 58 bd a2 40 6a ce 80 40 c6 3a a5 bf
       1.2380387 5.0856133 4.025197 -1.2908561
000070 bc 40 87 c0 7f 2b 0b 40 26 b0 9d c0 09 97 a7 40
       -4.226652 2.1745298 -4.9277525 5.237187
000080 36 0c 20 c0 a8 50 b7 3f ac ba c7 3f 63 b7 d7 3f
       -2.5007453 1.4321489 1.5603843 1.685284
000090 cf 4e 09 3f 11 3c 38 40 96 fa ad bf 82 f5 02 be
       0.5363588 2.8786662 -1.3592098 -0.12788966
0000a0 ea b5 af 3d d0 b5 47 c0 e5 89 2c 40 3f 0d 68 40
       0.08579619 -3.120472 2.6959164 3.6258085
0000b0 21 1f 8f 40 f5 20 fe bf dd eb 0e bf 1e d1 96 3e
       4.47255 -1.9853808 -0.5582865 0.2945642
0000c0 ab e0 28 40 ea 00 84 c0 01 0c 87 40 18 54 e1 3f
       2.6387126 -4.1251116 4.2202153 1.7603788
0000d0 d2 05 b4 40 5f 3c 64 c0 a9 cc a9 40 8e a8 ec be
       5.6257105 -3.5661848 5.306233 -0.46222347
0000e0 b4 6c 0b 40 41 01 9d 3e 84 70 8f 40 16 cf 2a 3f
       2.1785097 0.3066502 4.482485 0.6672224
0000f0 b9 ef 6e 40 ba 13 2e 40 bf 75 bc 40 cd f1 15 3f
       3.7333815 2.719954 5.8893733 0.58572084
000100 d6 d1 ca be a1 84 06 40 2d 13 da 40 34 df f7 3f
       -0.39613217 2.101845 6.814841 1.9364991
000110 ad 4b 1b 3f 31 78 30 c0 38 9d 16 c0 d9 49 9b 3e
       0.6066235 -2.757336 -2.3533459 0.3032978
000120 e8 bb d8 c0 15 27 11 be ba 56 37 c0 d1 31 c8 40
       -6.772938 -0.14175065 -2.8646684 6.256081
000130 77 20 49 40 06 a7 a5 3f 70 15 74 3f f3 40 37 3f
       3.1426065 1.2941597 0.9534521 0.7158348
000140 bb 1b cc 3f b4 bf bb 40 87 81 f9 3f e6 93 63 be
       1.5945963 5.8671513 1.9492654 -0.22224388
000150 ff 42 9f 40 e8 e0 44 40 00 9d ab be a4 18 43 bf
       4.976928 3.0762272 -0.3351822 -0.76209474
000160 2f b6 bd c0 b1 80 f3 bf 62 a3 f7 be 82 e1 00 40
       -5.928489 -1.9023649 -0.4836684 2.013764
000170 ff 86 85 40 8a a3 3f 40 62 61 e0 be 7b 49 07 3e
       4.172729 2.9943566 -0.43824297 0.13211624

bn2.running_var f4 [96]
000000 1f ae 99 41 f4 95 48 41 39 bd 9e 41 ab c1 11 42
       19.21002 12.53661 19.842394 36.43913
000010 ca 1e 55 41 e0 8e 0b 42 51 cf be 41 0f 19 af 41
       13.320017 34.889526 23.851229 21.887236
000020 41 99 45 41 dc b7 7e 41 75 f7 b4 41 d6 18 b8 41
       12.3499155 15.919888 22.620829 23.012127
000030 37 ad d2 41 75 d3 a5 41 91 84 67 41 a3 eb 92 41
       26.334578 20.72825 14.469865 18.365057
000040 09 c5 2a 42 39 26 02 42 49 83 d1 41 57 26 6e 41
       42.692417 32.537327 26.189104 14.88436
000050 3d dd ac 41 bc 31 b3 41 9f 0d 81 41 1f 20 53 41
       21.608027 22.399284 16.13165 13.195342
000060 d3 92 c4 41 25 e1 22 42 ef 69 f0 41 29 5e 73 41
       24.571692 40.719868 30.051725 15.210488
000070 81 ac 93 41 c5 aa bf 41 50 14 9a 41 f5 3e 84 41
       18.45923 23.958384 19.259918 16.53074
000080 8f ac e8 41 2a 20 a0 41 71 ad a6 41 17 d8 3f 42
       29.084257 20.015705 20.834688 47.961025
000090 ec dc 1b 41 84 54 be 41 fb 8b da 41 a5 09 23 41
       9.741436 23.791267 27.31835 10.189855
0000a0 b6 6a b4 40 dc 2a ab 41 0e 71 17 42 55 77 5c 41
       5.638026 21.395927 37.860405 13.779134
0000b0 a1 62 d7 41 f2 8c b1 41 95 15 f7 41 75 39 55 41
       26.923159 22.19382 30.885538 13.326528
0000c0 d6 f6 80 41 83 72 85 41 df 2f c2 41 f4 b9 07 42
       16.120525 16.680914 24.273375 33.931595
0000d0 8b b4 76 41 d3 98 9b 40 59 2c 14 42 2b 45 a2 41
       15.419078 4.8624053 37.04331 20.283773
0000e0 10 a9 6f 41 a0 a2 b4 41 57 55 01 42 cd fa 36 42
       14.978775 22.579407 32.33334 45.744923
0000f0 3a a8 73 41 4e 1b 05 42 ab 0c 92 41 12 76 93 41
       15.228571 33.276665 18.256186 18.432652
000100 d7 f5 b8 41 2e b3 af 41 68 9f 5a 41 4f 0c 05 41
       23.120039 21.96249 13.663918 8.315505
000110 d6 af ac 41 73 5c b7 41 c4 71 08 42 f9 92 93 41
       21.585857 22.920141 34.1111 18.446764
000120 4c a9 32 41 55 08 b0 41 f9 7c 94 41 39 ec 64 41
       11.166332 22.004068 18.561022 14.307672
000130 9c 70 75 41 1e e3 66 41 6d 84 6a 41 02 a7 ef 41
       15.339993 14.430449 14.6573305 29.956547
000140 b8 a5 ac 41 70 3a d4 41 6e 98 8e 41 76 25 83 41
       21.580917 26.528534 17.824429 16.393291
000150 06 a3 80 41 b9 84 98 41 6a ae b1 41 de 07 97 41
       16.079601 19.064806 22.210163 18.878841
000160 da 34 dd 41 4d f0 81 41 d3 1f 98 41 3d 44 95 41
       27.650806 16.242334 19.01554 18.65832
000170 ad 1c cf 41 f1 1a dd 41 f0 34 a4 41 2b e3 82 41
       25.889002 27.638155 20.525848 16.360922

fc3.weight f4 [4, 96]
000000 ab 9b 6c 40 34 73 bb bf d7 77 50 3f cc 47 d4 bf
       3.6970012 -1.4644532 0.8143286 -1.6584411
000010 4f 06 df 3c 43 ca a3 40 17 b2 0b c0 41 21 eb bf
       0.027224688 5.11844 -2.1827447 -1.8369523
000020 a7 cf 99 40 fe 75 72 c0 61 d2 29 c0 da 4a ab bf
       4.806598 -3.7884517 -2.6534655 -1.3382218
000030 8d d2 3b bf a6 50 a3 bf 1a a4 53 c0 cc c8 af c0
       -0.7336815 -1.2758987 -3.306891 -5.4932613
000040 e3 92 43 40 bf af c1 c0 47 c7 4c 40 df 86 fe be
       3.0558403 -6.0527034 3.199663 -0.49712273
000050 49 f3 a8 40 9d 43 0f 40 f8 9c f6 40 42 0d df bd
       5.279698 2.2385018 7.706661 -0.108912006
000060 93 fc ae 3d 29 c4 4b 3f d8 2f 29 40 8d 0b 23 40
       0.085442685 0.7959619 2.6435452 2.54758
000070 84 26 0b 40 ad ad db c0 0e 47 ab c0 3c 1a fc bf
       2.1742258 -6.8649507 -5.3524237 -1.9695506
000080 65 c4 34 c0 b4 01 bc be 5f 34 a0 c0 c3 2b 18 bf
       -2.824487 -0.3672005 -5.006393 -0.59441775
000090 64 e1 dc bf af e8 95 3f 04 d5 ad bf 81 a9 e8 3f
       -1.7256284 1.1711634 -1.3580632 1.8176728
0000a0 a7 12 88 c0 fb 2e 90 c0 86 0b 87 40 c6 38 0b c0
       -4.252277 -4.505735 4.2201567 -2.1753402
0000b0 62 61 e7 3f 92 e8 d2 3f 71 8c c5 bf ef 1a 54 be
       1.8076594 1.6477225 -1.5433484 -0.207134
0000c0 7f ef 07 3f 36 b5 83 40 fa e1 56 c0 8b 23 e7 3f
       0.5309982 4.1158705 -3.3575425 1.8057722
0000d0 c1 6a 9b 3e a7 6c df bf 8a 86 a8 3f 38 0a 50 c0
       0.30354884 -1.7455033 1.3166058 -3.2506237
0000e0 3e b5 bd 40 1a 1f 11 bf c9 e8 03 40 32 2d e4 3e
       5.9283743 -0.5668808 2.061083 0.4456573
0000f0 c8 ef bd 40 5e 69 57 40 12 76 49 c0 9b 54 31 3e
       5.93552 3.365806 -3.1478314 0.1731743
000100 e5 8a c8 3f 17 27 dc be df f1 b2 c0 c7 30 6f 3e
       1.5667387 -0.42998573 -5.5920253 0.23358451
000110 e1 32 04 c0 49 72 3c 40 5f 77 43 bf 3b b5 9f c0
       -2.0656054 2.9444754 -0.7635402 -4.990873
000120 14 e4 36 40 48 1b 2e c0 c4 c5 bb 40 d1 9d 86 40
       2.8576708 -2.720415 5.8678913 4.2067647
000130 8b e4 84 ba 5d d1 9c c0 e2 53 d2 3f 26 87 1d c0
       -0.0010138912 -4.900557 1.6431849 -2.4613738
000140 ba 98 5c 40 be 84 2c 3f bb 52 d7 3f d9 ac 19 c0
       3.4468217 0.6739005 1.6822122 -2.4011748
000150 0c b3 14 40 89 29 aa c0 ae c5 cc 40 9b 2b fc 3f
       2.3234282 -5.31757 6.399131 1.9700807
000160 41 bf 87 c0 69 88 29 bf dc 39 ab 40 c1 45 ac bf
       -4.2420964 -0.6622377 5.350813 -1.3458787
000170 33 6b 48 3f d5 f6 97 3f b1 cf 41 40 07 87 4f 40
       0.78288573 1.1872202 3.0283015 3.2426164
000180 58 b7 9b 3f 50 0c 8d bf a2 50 9b 3f 46 9a 6c 40
       1.2165327 -1.1019382 1.2133982 3.696916
000190 67 b6 1d 40 f2 f0 df 3e c9 9f bc 3f 2a 00 88 bf
       2.464258 0.43738514 1.4736263 -1.062505
0001a0 07 6a 6c 3f d1 18 1f 3e ef 85 5f 3f 3c 7e 80 40
       0.92349285 0.1553681 0.8731374 4.0154095
0001b0 19 a2 51 c0 36 b5 aa 3f 4d 64 e6 3e d9 5f 95 be
       -3.2755187 1.3336551 0.44998398 -0.29174688
0001c0 15 d0 26 40 57 c9 08 be 8b d5 2f 3f 49 c3 71 40
       2.6064503 -0.13358055 0.68685216 3.7775443
0001d0 8e 30 16 3f 5b e3 d7 bd 92 15 0f 3e e7 70 f4 3f
       0.5866784 -0.105414115 0.13973072 1.9096955
0001e0 a8 0c 27 bf ef cd 39 3f 2a fe 5f bf 82 01 a2 3f
       -0.65253687 0.72579855 -0.874972 1.265671
0001f0 a9 c0 b9 bf 81 4f 42 bf b8 cd 0f 3f 7b 8a 5b 40
       -1.451192 -0.75902563 0.56173277 3.4303272
000200 45 cf 7e 3f 60 20 06 3e 07 93 5c 3f 3a 3b 1a c0
       0.9953502 0.13098288 0.86161846 -2.409865
000210 6d 90 c8 bf 91 26 85 3f 7c 00 8e be 75 1e 75 3e
       -1.5669075 1.0402395 -0.27734745 0.239374
000220 55 24 8e bf 83 1a f9 3f 0c 0e 8b bd 70 19 f9 bf
       -1.1104838 1.9461216 -0.067897886 -1.9460888
000230 b9 a3 26 c0 cb b8 41 3f ab de ba 3f 86 ff 19 c0
       -2.6037428 0.75672597 1.4599203 -2.406221
000240 20 ec d9 3f 4f 5d 0c bf 17 a2 3f 40 f0 40 ec bf
       1.7025185 -0.5482988 2.9942682 -1.8457317
000250 99 85 f1 be 5d 97 6e bf e3 40 ad bf 61 33 c5 bf
       -0.4717224 -0.9319971 -1.3535427 -1.5406305
000260 23 15 d4 bd 57 11 85 bf b2 23 72 40 c6 1d 10 3e
       -0.10355594 -1.0395917 3.7834287 0.14073858
000270 99 10 e3 3f 7e e4 f7 3e b4 dd a3 3f 5b 60 2f bf
       1.773944 0.48416513 1.2802033 -0.685064
000280 62 3d 08 c0 0b 78 52 bf b0 6b 9e bf 03 fe 88 3f
       -2.1287465 -0.8221442 -1.2376614 1.0702518
000290 c5 a3 1a c0 0e 9d 09 40 e1 7f 30 40 37 30 a8 3e
       -2.4162457 2.1502109 2.757805 0.32849285
0002a0 18 55 fe bf 3d 1a e3 bf f1 b0 10 40 0f be 09 c0
       -1.9869719 -1.7742382 2.2607996 -2.1522253
0002b0 0f 78 84 c0 c9 f3 d7 bf 27 a3 20 3f f5 26 9e 3f
       -4.1396556 -1.6871272 0.6274895 1.2355639
0002c0 3a c2 71 3f 6c 09 aa bf 95 c9 96 c0 e0 63 42 40
       0.9443699 -1.3284125 -4.712107 3.037346
0002d0 49 5f 36 40 3c 45 04 bf 58 33 ea bf 6d 1b a3 3e
       2.8495657 -0.51668143 -1.8296919 0.31856862
0002e0 1b 0a a3 bf 03 ed 31 be 42 cd 67 be 6b 4b 8c be
       -1.2737459 -0.17375569 -0.22636893 -0.2740129
0002f0 c8 63 bd bf a6 ec e3 bf c4 fa 92 40 44 71 32 40
       -1.4796076 -1.7806594 4.593111 2.7881632
000300 d8 b5 23 40 f5 ce 7a 40 90 89 05 be ca 6e 34 3c
       2.5579739 3.9188817 -0.13040757 0.011012742
000310 15 d1 d0 3f 3b 78 f6 3d d1 77 cb bf 91 73 3a c0
       1.6313807 0.12034651 -1.589594 -2.9133036
000320 d9 15 1a 40 6d dd e4 3e e5 3d 25 3f 68 59 3b 3f
       2.4075835 0.44700184 0.6454757 0.731833
000330 04 d2 fe 3d c4 c3 a5 bd 28 78 ea 3d 02 c0 0c be
       0.12442401 -0.0809398 0.11448699 -0.1374512
000340 85 23 bf 3e c3 98 0f be 16 57 13 40 f1 c7 6e 3f
       0.37331787 -0.14023118 2.3021903 0.93273836
000350 e8 42 bd 3f bb 71 15 40 29 b6 5e bc f7 27 48 40
       1.4786043 2.3350666 -0.013593235 3.1274393
000360 9a 42 c0 3e 81 75 c7 bf 9e d5 09 bf 40 3d 91 c0
       0.37550813 -1.5582734 -0.5384158 -4.538727
000370 98 b3 52 c0 5d 2f ef bc a6 10 03 bf b6 6a 90 be
       -3.2922115 -0.02919739 -0.5119728 -0.28206414
000380 69 87 88 be 26 3b e7 3e 41 b5 eb bc 75 cb 4c bd
       -0.2666581 0.45162314 -0.028772952 -0.04999872
000390 90 b6 06 c0 b9 13 a9 c0 d8 c0 a7 bf 7f 91 93 40
       -2.1048927 -5.2836576 -1.3105726 4.6115108
0003a0 7e f8 04 c0 f6 60 5e 3d 23 38 da 3e a6 70 36 bf
       -2.0776668 0.054291688 0.42620954 -0.7126564
0003b0 4f 64 0b 3f e6 c3 80 c0 f5 0a 37 c0 57 a8 36 40
       0.54449934 -4.0239134 -2.8600438 2.8540246
0003c0 5f 76 b9 bf 68 45 01 bf 18 75 d6 3f 37 24 66 c0
       -1.4489249 -0.5049653 1.6754484 -3.5959604
0003d0 3a a9 48 be 84 67 05 bd a3 86 b1 bd 02 bb cb 3f
       -0.19595805 -0.032569423 -0.08668258 1.5916445
0003e0 9a b9 51 be fa f1 db c0 28 f6 1e bf a1 66 00 3f
       -0.20480958 -6.873288 -0.62094355 0.501566
0003f0 4b 9d 20 3d 37 7e 5d 3e 98 35 af 3e 7b fb 83 be
       0.039212506 0.21630178 0.34220576 -0.25777802

fc3.bias f4 [4]
000000 ca ea 89 bd 10 fc 74 3d fc ed c5 be 94 f9 e2 be
       -0.067342356 0.059810698 -0.3865813 -0.44331038
